p2_continuous-control/checkpoint_0_final.pth (torch, 55870 bytes, 12 tensors)

std f4 [4]
000000 fa ad 67 3e 0f bf 99 3e 85 8c 63 3d 3d 49 d5 3d
       0.2262496 0.3002858 0.05555393 0.1041436

actor_body.layers.0.weight f4 [64, 33]
000000 a3 cc 06 3e 6e 0a 9c 3d 37 cd 23 bd f2 fa 98 3a
       0.13164 0.07619177 -0.03999063 0.0011671467
000010 25 59 09 3d 0d f3 8b be 0b 19 46 3d 8c e6 c6 3c
       0.03353228 -0.2733387 0.048363727 0.024279855
000020 a6 3d 42 3d 3d a2 1d bd 7f 90 b3 3d 4e b8 fc 3d
       0.047422074 -0.0384848 0.08767795 0.12339841
000030 c6 12 69 be f1 ad 71 be 91 16 43 bd 60 84 01 be
       -0.22761068 -0.2360151 -0.047628943 -0.12648153
000040 a9 1b d9 3c 60 2f 51 3e 8b fc 30 3d 1d 7f 10 3e
       0.026502447 0.20428228 0.043209594 0.1411099
000050 2b 43 4a be 40 2d 90 3c b1 5b 14 3d f4 0f 51 be
       -0.19752185 0.017599702 0.036220256 -0.20416242
000060 51 d6 65 be a4 d3 7e bd 80 be 07 3e b3 21 ab be
       -0.22445036 -0.062213555 0.13256264 -0.33424148
000070 97 d5 85 bd a8 3d df 3c a5 58 dd bd 80 75 d3 3c
       -0.0653488 0.02725108 -0.10807923 0.025812864
000080 49 a7 1e bf ba df 99 bd 95 82 d1 3d 97 8d 12 be
       -0.61974007 -0.075133756 0.10229985 -0.14311825
000090 0e 30 47 3d 84 64 81 bd 50 ba 1b 3e da 1e 03 be
       0.048629813 -0.06318 0.15207791 -0.12804738
0000a0 54 5f a2 bd 6a 88 63 3e 31 a8 5a bd fe 40 6c be
       -0.07928339 0.22220007 -0.053383056 -0.23071668
0000b0 7c 83 33 3d 3c c8 0f 3d e0 0d 46 be f2 b8 79 3e
       0.043826565 0.035103068 -0.1934123 0.24386957
0000c0 39 84 f6 3d 79 12 da 3d 5c e8 aa bc 0f 95 ce 3c
       0.12036938 0.10648055 -0.02086275 0.025217561
0000d0 02 a8 2d be 9b 78 0a bd e4 f6 23 be 81 20 27 be
       -0.16958621 -0.033806425 -0.1601215 -0.16320993
0000e0 c6 e5 0f 3d 04 56 94 3e 45 23 b1 bc 8f 52 21 be
       0.03513124 0.28971875 -0.021623263 -0.1575415
0000f0 a0 55 9d bc a7 e5 fc 3d 6d 4a 21 bd 1a d8 01 3e
       -0.019205868 0.1234849 -0.03937762 0.12680092
000100 89 79 d7 3c 1a 77 20 3e 13 3b 88 3e a8 83 13 3c
       0.02630307 0.15670434 0.2660757 0.009003557
000110 a4 8a 93 3d 8c 02 3b 3d bd e6 27 3e 96 49 5f 3e
       0.07204178 0.045656726 0.16396613 0.21805415
000120 03 b9 28 be 4a 73 78 bd bc ba 4f 3e f6 0f 72 be
       -0.16476826 -0.060656823 0.20286077 -0.23638901
000130 25 5e d6 bc c0 57 40 3e 8f dc 7c be f3 0e 86 3c
       -0.026167938 0.18783474 -0.24693511 0.01636455
000140 03 b7 ee bd 3c f7 9b be 90 4b ca bb 88 5b 9f bc
       -0.116560005 -0.30462062 -0.0061735585 -0.019452825
000150 53 68 92 3e 5d ab 62 3c be 7a 92 bd ce f4 03 be
       0.28595218 0.0138348015 -0.071523175 -0.12886354
000160 ae 89 17 3e 54 24 6e 3e 4e a2 b4 bd 9a ff 5c 3c
       0.14798614 0.23256046 -0.0882002 0.013488675
000170 13 a9 b7 bd 1c 4e 17 bd 99 49 9f bd dd ac 21 3d
       -0.08967795 -0.036939725 -0.077777095 0.039471496
000180 94 38 02 3e d6 de ca bd 72 fd c3 bd a4 8f 18 be
       0.12716895 -0.09905784 -0.09569825 -0.14898545
000190 c4 e0 56 be 85 74 13 3d d2 26 8d 3e bd e3 e5 bd
       -0.20984179 0.035999794 0.2756868 -0.11225078
0001a0 96 9a 0b 3e c5 57 3e bd 0f f8 e9 bd 68 bd d2 bc
       0.13633189 -0.046470422 -0.114242665 -0.025725082
0001b0 7f 55 3e be 4a d6 20 be 1a d4 91 be f9 5f 6d 3e
       -0.18587302 -0.15706745 -0.28482133 0.23181142
0001c0 16 3b 3b 3c 5c 41 7c bd 6a 8b 05 be e7 3d 82 bd
       0.011427661 -0.06158577 -0.13041463 -0.06359463
0001d0 d1 d9 1a 3e f3 5c da 3d 00 61 89 3d 35 59 08 3e
       0.15122153 0.1066226 0.067079544 0.1331528
0001e0 d6 69 60 be bc 30 19 3e 87 66 58 be 83 b0 84 bc
       -0.21915373 0.14959997 -0.21132861 -0.016197449
0001f0 1b 31 ad bd b6 2d 11 3e 56 54 29 bd a1 a1 94 3e
       -0.08456632 0.14177594 -0.041340195 0.29029563
000200 ed fb 66 bd 06 ba 3c 3d d4 6a 14 3c ce 8d 80 bd
       -0.0563926 0.046075843 0.009058673 -0.06277047
000210 5b e6 3e 3e e5 00 34 be 3a 0b c3 3e e6 b5 a2 3d
       0.18642561 -0.17578466 0.38094503 0.079448506
000220 69 e4 81 3e ef 27 99 3b c9 2d bf 3d 70 a1 01 bd
       0.25369576 0.00467395 0.09334905 -0.0316481
000230 98 0e 70 3d bc ce a4 bc c2 b7 1d 3e c3 48 d5 3d
       0.058607668 -0.02011811 0.1540213 0.10414269
000240 e0 d0 40 3e 7d ae 22 be 24 9e 3b be 98 b6 a0 bd
       0.1882968 -0.15886874 -0.18322045 -0.07847327
000250 3f 0b 87 bd 88 28 9b 3a c8 18 f1 3d 0d 36 19 3e
       -0.06593942 0.0011837641 0.11772305 0.14962025
000260 30 0e a2 bc e7 9c ac 3b 68 34 d2 bc d2 42 c2 3c
       -0.019782156 0.0052677277 -0.025659755 0.023713503
000270 c6 64 c0 bd 05 57 32 be ef e2 4e bd 6e 09 20 3e
       -0.09394221 -0.17416008 -0.05050939 0.15628597
000280 11 91 1b be e5 7c d2 3c c8 61 1f 3e e0 15 9d 3e
       -0.15192057 0.02569432 0.15564644 0.30680752
000290 86 f6 9c bc f9 e8 25 be 9f a6 24 be 6d 9f 91 be
       -0.01916052 -0.16202153 -0.16079186 -0.28441945
0002a0 66 59 91 3d 04 9d d4 bd 35 34 15 be d8 32 8e bd
       0.070971295 -0.10381511 -0.14570697 -0.069432914
0002b0 8d b6 99 3e e7 0a d8 bd 6f da ac 3c 5d c6 42 bd
       0.30022088 -0.105489545 0.021100251 -0.047552455
0002c0 a3 1d dd 3d bd f1 01 be 15 0f b7 3e c4 21 b6 bc
       0.107966684 -0.12689872 0.35753694 -0.022232898
0002d0 e7 f2 4c bc 06 ac 2a 3e 76 50 bd 3d 15 a0 34 3e
       -0.012509084 0.16667184 0.09243862 0.17639191
0002e0 e4 6c e0 3d 0c 69 c6 3d 59 f7 0e 3e aa 3b 89 be
       0.10958269 0.09688005 0.13961543 -0.26803333
0002f0 23 e8 a1 bd da 84 70 3d 6c 86 93 3d 5b 03 bf bd
       -0.07905605 0.058720447 0.07203373 -0.09326812
000300 00 d0 e5 bd fe fa 8d 3d 9d 66 3f bc 82 61 a0 bd
       -0.112213135 0.069326386 -0.01168218 -0.07831098
000310 87 15 31 be 49 77 e7 3d 0a fa 41 be e7 23 f4 bd
       -0.17293368 0.11302049 -0.18943039 -0.1192091
000320 40 3d 50 be 66 61 ff 3d bb a2 81 be 9f d1 a0 3c
       -0.20335865 0.12469749 -0.25319466 0.019631205
000330 23 95 c9 3d c9 12 6e 3e 21 ae 80 3d c2 c5 b5 bd
       0.09842899 0.23249353 0.062832125 -0.0887561
000340 84 ca 93 3d e3 9c 46 be bf be ab bd d1 61 43 3e
       0.07216361 -0.19395785 -0.08385991 0.19080283
000350 a3 95 1f be 99 a0 76 bd 92 b9 90 be 24 fa e2 bd
       -0.15584426 -0.06021175 -0.2826658 -0.11082867
000360 7c 9f 87 3e 40 ed 5c be 58 f8 5d be 00 8a ee bd
       0.26488864 -0.21574879 -0.21676767 -0.11647415
000370 51 28 98 3d 82 ce 4e bc 39 85 df 3d db 99 40 bd
       0.07429565 -0.0126224775 0.10914082 -0.047021728
000380 53 90 79 be 28 5e 34 bd dc 15 45 3d 42 82 c8 3e
       -0.24371462 -0.044035107 0.04811655 0.3916188
000390 27 4b f9 3c 1d 61 82 bd 34 b5 b7 3e c8 27 55 be
       0.030431343 -0.06366179 0.35880435 -0.20815957
0003a0 dd 09 46 be 8c a6 74 3d 56 1a 8f b8 dd 39 ab bd
       -0.193397 0.059729144 -6.823677e-05 -0.08360646
0003b0 8c 6d 36 bd 6b 78 88 3e 4b 22 65 3d 23 48 94 3d
       -0.044538066 0.26654372 0.055940907 0.072403215
0003c0 f6 7c 43 be 8d aa 8e be 5e 30 65 bd cb 3e 3a be
       -0.19090638 -0.27864495 -0.05595433 -0.18188016
0003d0 4c b2 0d 3e ed 0f 5f be 4e b6 56 bd 20 d3 7b bc
       0.13837546 -0.21783419 -0.052419953 -0.01537016
0003e0 a8 e0 35 ba 6c 77 6e be a4 79 af 3d 15 3c 2c 3e
       -0.00069380784 -0.23287743 0.08568123 0.16819794
0003f0 a2 85 94 3d 8b 60 f3 3d 9a 11 86 3e d9 ca cc bd
       0.07252051 0.118836485 0.26185304 -0.099996276

actor_body.layers.0.bias f4 [64]
000000 ed b5 b2 3d da 59 dc 3d a2 a1 01 3d e3 dd 80 3d
       0.08726106 0.10759325 0.031648286 0.062923215
000010 6e eb ba 3c f8 11 0a 3e d7 8d 83 3d c2 73 85 3c
       0.02281734 0.13483417 0.06423538 0.01629055
000020 d7 20 64 3c e2 cc 27 3d ff fb 9d 3b af 37 43 3d
       0.013923845 0.040966876 0.0048213 0.047660526
000030 5d 41 cf 3d f7 cf 55 3c 5a e2 b3 3d 46 fb be 3d
       0.10119889 0.013050071 0.087834075 0.0932527
000040 a4 4b 13 3e b1 ac ef bc d1 21 d0 3c 66 7d af 3d
       0.14384323 -0.02925715 0.02540675 0.0856884
000050 02 63 6d 3d bf bf 84 3d aa d1 07 3d 4a 1a 2e 3d
       0.05795575 0.06481885 0.033158936 0.04250554
000060 e0 67 9f 3d 8c 51 0f 3e 54 0b f9 3c a7 07 65 3d
       0.077834845 0.13995951 0.03040091 0.0559155
000070 aa bc 5c 3d cb a6 e5 3d 02 d6 8a 3c 7a 0d 92 3d
       0.05389086 0.11213454 0.01694775 0.07131477
000080 ea b8 43 3d e4 80 8e 3d ef 1d c8 3d 74 ee 56 3d
       0.04778377 0.06958178 0.097713344 0.0524735
000090 c7 3d db 3c 43 2f 87 3d 36 0a d2 3d 93 72 51 bc
       0.026762856 0.06600811 0.10255854 -0.012783664
0000a0 f8 62 e0 3c 44 84 1d 3d 68 3e bc 3d 70 0d 9c 3d
       0.027390942 0.038456216 0.091915905 0.076197505
0000b0 7d ed a4 3d 0d e0 b7 3c 1c a5 1c 3d bc 37 21 3d
       0.0805311 0.022445703 0.038243398 0.039359793
0000c0 3e ee 91 3c 0d fd 55 3d 8b aa 7b 3d b9 14 e1 3d
       0.017813798 0.05224328 0.06144194 0.10990281
0000d0 65 cc e8 3d b5 b1 e5 bc 13 f7 8e 3d 90 c4 2a 3d
       0.1136711 -0.028038839 0.069807194 0.041691363
0000e0 5a fb f0 3c 8f ab f4 bc 0e 55 54 3d 5c ee 07 3d
       0.029416729 -0.029866962 0.051838927 0.0331863
0000f0 d0 00 be 3d b4 75 0a 3e 1a 79 00 3d 75 56 a0 3c
       0.09277499 0.13521463 0.03136549 0.019572476

actor_body.layers.1.weight f4 [64, 64]
000000 c8 68 b4 be 47 54 56 3e 90 b1 b4 bd 23 95 3b 3e
       -0.35236192 0.20930587 -0.0882293 0.1831861
000010 c9 d7 45 3e 5b bc a4 3c 35 ac 01 3e 32 74 9c 3e
       0.19320597 0.020109346 0.12663348 0.305574
000020 dd 06 60 3d c4 f3 6c be 48 fe 16 3e 35 2f a3 3d
       0.054694045 -0.23139864 0.14745438 0.079679884
000030 29 a2 4a 3e 33 db 50 be ae 3d cf bd e3 2b b0 bd
       0.19788422 -0.20396118 -0.10119186 -0.08602121
000040 a9 db cd bd b9 40 15 bd 25 38 14 be 4e 0d f9 bd
       -0.100516625 -0.036438677 -0.14474542 -0.12160741
000050 a5 e1 21 3d 25 af a3 bd 05 4e 1d be 53 4c 4b 3a
       0.039521832 -0.079923905 -0.15361793 0.00077552086
000060 5d 96 88 3d e3 c3 1f 3e f9 5c 6e 3e 2d 60 83 3e
       0.066693045 0.15602069 0.23277654 0.25659314
000070 4f d7 5b bd d5 41 9b bc b7 8a a2 3d 73 27 8c 3e
       -0.05367213 -0.01895229 0.07936614 0.27373847
000080 d0 92 40 be bf d4 15 be df 68 ee bc 4c d4 0d 3e
       -0.18806005 -0.14631937 -0.02910274 0.13850516
000090 ea 66 6e 3d 37 d3 ff 3c 7c e5 21 bd e4 a7 44 bc
       0.058203615 0.031228645 -0.039525494 -0.012002919
0000a0 cc f9 11 3d 4c 07 bd 3b 9e 63 51 bd e6 53 d8 3d
       0.035638615 0.005768692 -0.051120393 0.10562877
0000b0 b2 f0 de 3c fe 64 b9 be 16 78 37 be fe ff b2 bc
       0.027214382 -0.36209863 -0.17916903 -0.021850582
0000c0 99 ce 1b 3e ab b2 1b 3e 64 64 fa 3d 2f 35 07 3e
       0.1521553 0.15204875 0.12226179 0.13203882
0000d0 ca 7c f1 3d a9 ac 52 3e b1 61 91 3d ff 84 ea 3d
       0.1179138 0.20573677 0.07098711 0.11451148
0000e0 06 15 00 3d 98 c7 26 be d3 91 28 bc b5 11 88 bd
       0.03127005 -0.16287076 -0.010288673 -0.06644002
0000f0 ef b2 a2 3e 7f 24 43 be 71 8b 09 be c6 d8 d7 3c
       0.3177714 -0.19056891 -0.13432099 0.026348483
000100 9b d0 24 3e 1b 2a ff bd 17 cb b3 3c cc 01 88 be
       0.16095202 -0.12459203 0.021947427 -0.2656387
000110 dd f8 0b 3d ad 0d b0 be 78 27 3b 3e ef a0 c5 bc
       0.03417288 -0.34385434 0.18276775 -0.02412459
000120 11 95 42 3e d8 ad d9 3c 22 71 96 3d f8 b7 51 be
       0.19002177 0.026572153 0.07345797 -0.20480335
000130 2b 14 df bb 10 51 08 3e 1b 95 1b 3c f0 4d 17 3b
       -0.006807824 0.13312173 0.009495999 0.0023087226
000140 45 ce 98 3c 50 0f 0d bc f5 6e 62 3d 0c 30 11 3c
       0.018653044 -0.008609608 0.055281598 0.008861553
000150 07 e5 1e be 67 67 d9 3d 3f 12 34 3e 43 cb 3f bd
       -0.15517054 0.106154256 0.17585085 -0.046824705
000160 60 43 c0 bd b7 d0 c3 be 7b 8d 15 3e b2 29 39 be
       -0.09387851 -0.38245174 0.14604752 -0.18082312
000170 e1 8f 56 3d 29 a4 15 3e ed a6 2a 3d 5b f9 35 3e
       0.052383307 0.14613403 0.0416631 0.17770903
000180 56 9f 28 3d f7 a2 dd 3d 78 ae 2c be 20 3b 78 bc
       0.04116758 0.10822099 -0.1686343 -0.015150815
000190 4a 0d 73 3e ae 21 6c bd 5a 92 20 3e 51 89 68 bd
       0.23735538 -0.057649307 0.15680829 -0.05677158
0001a0 70 2e 61 be 24 2d 24 bd 48 75 13 be bf bb 5d 3d
       -0.21990371 -0.040082112 -0.14400208 0.054134127
0001b0 b6 c7 19 3d 06 fc 75 3d 0e df a5 bd ef 38 0a be
       0.037543975 0.0600548 -0.08099185 -0.13498281
0001c0 73 f8 86 3e bf ae 1c 3e b5 62 25 3e 8f 2d 4f 3e
       0.26361427 0.15301035 0.16150935 0.20232223
0001d0 e7 e1 20 be cd 6a 16 3e 79 1e c5 3d 3a 3e 05 3d
       -0.15711175 0.14689179 0.09624953 0.032530047
0001e0 e6 77 cc 3d 9e 19 9e 3e ed 48 7b 3d 2e cf 1a 3d
       0.09983806 0.3087892 0.061348844 0.03779524
0001f0 4e 8c 9d bd 59 a8 a5 3d 33 21 6b bd ad 8d e1 3c
       -0.076927766 0.080887504 -0.057404708 0.027533377
000200 fc 63 34 3d f9 77 bd bc 65 e6 37 be d0 63 ee bb
       0.044040665 -0.023128496 -0.17958982 -0.007275082
000210 0a 16 1d 3c 7c 34 b2 be f0 eb 26 be 29 c6 16 3e
       0.009587774 -0.34805667 -0.1630094 0.1472403
000220 0e 26 5e be 1e 28 db bb 0c 7c d8 3c 3a a9 30 be
       -0.21694204 -0.006688132 0.026426338 -0.17252055
000230 59 29 9a bd 98 c3 ab 3d 27 b3 20 3e eb 09 40 be
       -0.07527418 0.08386916 0.15693341 -0.18753783
000240 2c 3f 70 bd 9e a1 b5 3d c4 bf 4b bd 23 ff a1 3d
       -0.058653995 0.08868717 -0.04974343 0.079099916
000250 ec ce e4 3d 97 4d 9f be be 6d fc 3d 7f dd 2a 3d
       0.1117228 -0.31113884 0.12325619 0.04171514
000260 84 d1 63 3e 7a 70 b2 bb 0f 88 62 bd d3 9c 96 3e
       0.22247893 -0.005445537 -0.055305537 0.29416522
000270 74 b3 2e 3e 29 b7 8e be 35 00 8b bd 57 67 15 bc
       0.17060643 -0.27874115 -0.06787149 -0.009118876
000280 eb 30 c8 bb fc 76 0d 3e 64 2f fb 3d ae dc e6 3d
       -0.006109347 0.1381492 0.122648984 0.1127256
000290 8d b0 46 3e a1 13 c9 3d 00 9b 93 bd 5d 24 75 3c
       0.19403286 0.09818197 -0.07207298 0.014962283
0002a0 07 17 8c 3d 44 ee b8 3d 98 d3 01 be 08 34 5b 3e
       0.068403296 0.090298206 -0.12678373 0.21406567
0002b0 5c 82 9c be 4b b5 98 bd 10 eb 31 be 46 32 65 3d
       -0.30568206 -0.07456454 -0.17374825 0.055956148
0002c0 be a0 2f be 9b 74 ef bd fb 9d 39 bc a8 b2 06 be
       -0.17151162 -0.116921626 -0.011329169 -0.1315409
0002d0 cc 59 ae 3e ba 1b 97 3c fa f0 25 be 69 2e e6 3d
       0.34052885 0.018445838 -0.16205207 0.11239321
0002e0 64 88 43 3e 45 06 4f bd 7e 1f 32 be d5 dc 52 bd
       0.19094998 -0.05054309 -0.17394826 -0.051480133
0002f0 47 fa 23 3e 19 4d ce 3e 04 84 7f bd 66 aa 32 bd
       0.16013442 0.40293196 -0.06238176 -0.043619536
000300 1b 99 57 bd 02 92 93 3d 1f 50 1c bd ff 95 c5 3d
       -0.052636247 0.07205583 -0.038162347 0.0964775
000310 72 c4 6e 3e 74 7d 2c be 26 12 ea bd 93 1d 3f 3c
       0.23317125 -0.16844732 -0.11429243 0.011664766
000320 50 04 1e 3e f8 39 76 be b4 1c 19 3d c4 aa 0d be
       0.15431333 -0.24045551 0.03738089 -0.13834673
000330 27 2e 2b 3e c5 0b 57 bd 7a be 08 be 74 11 d3 bd
       0.16716824 -0.05250146 -0.13353911 -0.10306063
000340 b2 33 34 be 21 29 c7 3d e8 b5 a1 be e1 dd 06 3d
       -0.17597845 0.097246416 -0.31584096 0.032926444
000350 c6 79 89 bd 8a ea 3d bd 9f b1 1e 3e ab 2e 2b 3d
       -0.067126796 -0.046366252 0.15497445 0.041792553
000360 c3 06 11 be f8 b7 4a 3e 93 91 42 3e 2c f2 eb 3d
       -0.14162736 0.19796741 0.19000845 0.115208
000370 e1 64 6d be a6 1a 10 3e e0 45 bc 3c f7 3e 2b 3d
       -0.23183013 0.14072666 0.022982538 0.041808095
000380 e2 f3 a3 3c b0 f4 a4 3a 26 ac a7 bd a2 94 28 3e
       0.020013753 0.001258513 -0.081871316 0.16462949
000390 1a 1f ae bd 50 20 62 3e e4 ef ea bb b5 59 82 3c
       -0.08502026 0.22082639 -0.0071697105 0.015911916
0003a0 ae de 44 3e 44 68 86 3c db ee 4e 3e 8e 08 39 3c
       0.1922557 0.01640714 0.20208304 0.0112935435
0003b0 9a 1a cd 3d 4f 19 1b bd bd 33 70 bd ed 7b 68 3e
       0.100148395 -0.037865933 -0.05864309 0.22703524
0003c0 cc 79 e2 be 66 0f 3a bd b8 34 b2 bb 17 70 b0 bd
       -0.4423355 -0.04542484 -0.0054384135 -0.086151294
0003d0 f1 21 9a bd ef 08 d5 3d a4 bd 6c bd d9 48 1c be
       -0.07526005 0.104020946 -0.057798043 -0.15262164
0003e0 2f a5 05 3e 22 77 bf 3e 27 05 81 be 30 1f 24 3e
       0.13051294 0.3739558 -0.25199243 0.16027522
0003f0 39 b4 a9 3d ce 46 b2 3b 5b ab 9e 3b c4 ab 69 bb
       0.08286328 0.0054405695 0.0048422045 -0.0035655359

actor_body.layers.1.bias f4 [64]
000000 7a 05 26 3d d9 11 e7 3c 32 ac 54 3d 07 3e 47 ba
       0.040532567 0.028206753 0.05192203 -0.00076004904
000010 58 77 2a bc d8 54 af 3b 31 13 0e 3d ec 66 7e bb
       -0.01040443 0.0053506903 0.03468627 -0.003881867
000020 9d f1 78 3d 9d cf 19 3e 2c d4 2e 3d 77 f7 fe 3c
       0.060777295 0.15020604 0.04268281 0.03112386
000030 33 7e a4 3b 34 b3 2b 3d 08 ed 65 3d cf 6a 62 3d
       0.005019927 0.04191895 0.056134254 0.05527764
000040 15 d6 0b 3d 1d 7e 45 bc 82 be 8c 3d 36 b0 99 3c
       0.03413971 -0.0120539935 0.06872274 0.018760782
000050 55 fc 99 3c 06 04 d4 3a 9b 42 0d 3c 60 51 c3 3c
       0.01879708 0.0016175515 0.008621837 0.023842514
000060 a9 be 1f bc b4 39 33 3d a0 ad f7 3c b2 26 8e 3d
       -0.009750047 0.043756202 0.030234158 0.06940974
000070 13 28 72 3d 13 1a 00 3d e1 51 7c 3c 6a 0e c7 ba
       0.05912025 0.031274866 0.015400381 -0.0015186791
000080 79 31 f8 3c 55 fa 2e 3d a7 b2 02 3d 78 29 7b 3d
       0.030297028 0.042719204 0.031908657 0.061318845
000090 40 d1 86 3d 2b fe 3b bc 01 12 4a 3c 74 bd e7 3b
       0.0658288 -0.011474173 0.012333394 0.007072145
0000a0 3a 42 9a 3c 49 1d ff 3c 06 18 1a 3d 5a 85 21 3d
       0.018830407 0.031141894 0.037620567 0.039433815
0000b0 4c 3f 2c 3d 2b 68 c6 bc 51 a0 9d 3c f1 e6 e7 3c
       0.042052552 -0.024219593 0.019241484 0.028308364
0000c0 f6 39 fb bb 4b be ee 3b a7 fc 10 3d 24 8e c1 3b
       -0.0076668216 0.0072858683 0.035397198 0.005906837
0000d0 32 c0 69 3d 0a 7e 00 3d 8c 4e 2e 3d 0b 8d f6 3c
       0.057068057 0.0313702 0.042555377 0.030096551
0000e0 28 1b 12 3d b1 14 65 3d e3 a4 c3 3c e4 18 1d 3d
       0.03567043 0.055927936 0.023882335 0.038353816
0000f0 5c 30 94 3d 5c 3a 1a 3d 22 7e aa bb e7 6f ea 3c
       0.07235786 0.037653312 -0.0052030245 0.028617812

critic_body.layers.0.weight f4 [64, 33]
000000 90 33 59 be 3c bd 56 3d 7a 19 46 be 35 03 0c 3e
       -0.21211076 0.05242656 -0.19345656 0.13673098
000010 d5 66 a7 3d a3 10 59 bd 98 a8 f1 3d d5 af 82 bd
       0.081739105 -0.05299438 0.11799735 -0.063811935
000020 82 eb 30 bd a5 06 21 bd 31 30 b8 bd 1b e0 ba 3d
       -0.043193348 -0.039312977 -0.08993567 0.09124776
000030 f2 19 85 3b b8 2c ba 3d 25 67 9d be 2a 59 8c 3d
       0.004061931 0.09090561 -0.30742756 0.06852944
000040 89 e2 9a bd a0 7d 1c 3e 4d d5 41 be 30 13 93 bd
       -0.075627394 0.15282297 -0.18929024 -0.07181394
000050 5f 19 20 3d 6c ca 36 bd 92 ae 14 3d bc f3 04 be
       0.039086696 -0.04462664 0.036299296 -0.12983602
000060 b2 24 b1 bd b4 ef a2 bd 1d 24 8b 3d 17 8d 91 3c
       -0.08649577 -0.07955876 0.067939974 0.017767472
000070 f9 89 f0 3d fe 5b 1e be b3 f7 1d 3e a7 c5 9f 3d
       0.11745066 -0.1546478 0.15426521 0.07801371
000080 d4 10 ae 3e 81 07 80 be 4b a4 af 3d 8c a7 ad bc
       0.33997214 -0.25005725 0.08576258 -0.021198057
000090 68 4a a6 3c a5 a3 ca 3d 0b ce 4d be 26 4d 40 be
       0.020299152 0.09894494 -0.2009813 -0.1877943
0000a0 03 40 95 bd 89 f2 5e 3d 34 58 a8 3d 02 d2 fc 3c
       -0.072876 0.05443052 0.082199484 0.030861858
0000b0 d4 f1 c3 3c ed 85 03 bc 51 15 fa bd f6 9e 03 be
       0.023919024 -0.008027536 -0.12211097 -0.12853608
0000c0 83 00 85 3e 81 6b f4 3d 50 96 92 3c b1 33 ab 3d
       0.25976953 0.11934567 0.01789394 0.08359469
0000d0 e2 57 cd 3d cf 7d 02 bc 54 fb 26 3e f8 9b 07 be
       0.10026528 -0.007964565 0.16306812 -0.13243091
0000e0 e5 08 61 bd b3 4b bd bd 7b 3f 97 3d c2 cc 0d 3e
       -0.054940123 -0.09242954 0.07385155 0.1384764
0000f0 23 3a 3b 3c c5 00 3a be 00 10 4b b7 20 cc a8 bc
       0.011427435 -0.18164356 -1.2103468e-05 -0.020605147
000100 5b 8e d1 3d 53 3d 06 be 36 2a 7a 3e 25 c7 c7 bc
       0.1023223 -0.13109331 0.24430165 -0.024386952
000110 08 db 2a be 10 af 30 3e 3f e2 00 3d 67 3f c4 3d
       -0.16685116 0.17254281 0.031465765 0.095824055
000120 9d 59 0b bd 0b 51 93 3d ef b8 11 bc 43 8b 27 3e
       -0.03402101 0.07193192 -0.008894189 0.16361718
000130 b3 a5 09 3e 3c 7f a2 3c c5 49 90 3d c2 dc 30 bd
       0.13442115 0.01983606 0.070453204 -0.04317928
000140 7c b8 8c bd 68 e5 02 3e b2 05 33 be 59 a3 e6 3d
       -0.06871125 0.12782824 -0.17482641 0.11261625
000150 7d 1c 57 bc 24 9c 16 be 21 c4 70 3c fd 1d 8b bd
       -0.013129351 -0.14708 0.014695198 -0.06792829
000160 1a 65 e4 bd 50 1b 1d be 86 5f 8d 3c b3 36 11 3d
       -0.11152096 -0.1534245 0.017257463 0.035452556
000170 c3 56 c3 bd 0a 9a c6 be 70 1f ca bc 90 cf 0f 3c
       -0.09538033 -0.38789397 -0.024673194 0.008777514
000180 39 0c db bc 24 51 bb 3d 14 76 0d bf 94 23 ca 3d
       -0.026739227 0.09146336 -0.552583 0.09870067
000190 35 0a 6c 3e 1a b7 4f 3d 9c 4e 25 be 16 e9 00 3c
       0.23050769 0.05071173 -0.16143268 0.007868072
0001a0 8a 78 3f 3d 73 c6 cc 3d 2c 6a d3 bd e4 f6 86 bc
       0.046745814 0.09998789 -0.10322985 -0.016475148
0001b0 63 f8 17 be 35 6b 61 3d 4a 21 52 3d 43 3c 49 bc
       -0.14840846 0.05503388 0.05130128 -0.012282434
0001c0 fe 20 8d be 38 d7 8f 3d 92 2c 60 be 12 96 9e 3d
       -0.27564234 0.070234716 -0.21892002 0.077434674
0001d0 87 19 dc 3d f6 5e 34 3d cf af b5 b9 f0 d2 37 3d
       0.107470565 0.044035874 -0.00034653998 0.0448789
0001e0 b8 cb 8d bd 78 f2 f0 3c 14 a1 0e be 10 f1 b7 3c
       -0.06923622 0.029412493 -0.13928634 0.022453815
0001f0 1b 49 b1 bd b8 19 88 3e 77 d0 2a be 4e 22 4f 3d
       -0.08656522 0.26582122 -0.16681086 0.050569825
000200 af a5 3f bd 17 c7 2f bd c8 63 fb bd b6 0a 9c be
       -0.046788868 -0.042914476 -0.12274891 -0.30476922
000210 c4 ca 9d 3d 52 f5 fd 3d 16 80 b3 bd 98 87 cd bc
       0.0770469 0.12400307 -0.08764665 -0.02508907
000220 c4 6a 6e be 21 7e 2e 3e ab d6 37 be 6b 7f 20 bd
       -0.23282915 0.17040302 -0.17952983 -0.039184015
000230 9b a5 b3 bc 3b 69 16 3e 7f 74 0f 3e 25 bd e9 3d
       -0.021929553 0.1468858 0.14009283 0.114130296
000240 dc eb ae 3d e2 5d 64 3e e0 b2 84 bd b6 b6 1a 3e
       0.0854108 0.22301438 -0.0647943 0.15108761
000250 1b 36 fe bd 4f 19 14 bd 3e 21 c4 bb a3 85 a2 bd
       -0.124126635 -0.03615695 -0.005985408 -0.079356454
000260 46 04 96 3d 8d 81 07 be 8f 78 95 bd 4c 0a f9 bd
       0.07325034 -0.13233013 -0.07298385 -0.12160167
000270 9e 0c 38 be 0f 56 6d 3c 57 b4 27 bc 9a 6d 6c 3e
       -0.17973563 0.01448585 -0.010235867 0.23088685
000280 66 c8 62 bd 60 05 bc 3d c9 ad b2 bc 98 23 81 be
       -0.055366896 0.09180713 -0.021811383 -0.25222468
000290 16 86 91 bc d5 49 f8 3d c4 5c 6e 3d 8d 71 51 bd
       -0.017764132 0.12123457 0.058193937 -0.05113368
0002a0 f9 65 9c bd 41 7d e1 3d d4 b8 9c be 02 38 de bd
       -0.07636637 0.110102184 -0.30609763 -0.108505264
0002b0 7a 68 03 3e f0 13 42 3d df 09 00 3e a0 87 bd 3c
       0.12832823 0.047382295 0.12503766 0.02313596
0002c0 6b 33 3c 3d 56 a0 81 3d 60 83 52 3d 0d 15 1a bd
       0.045947473 0.0632941 0.05139482 -0.03761773
0002d0 bf e2 9f bd b5 98 65 bc 61 9c c9 3c 6e 4d 13 3e
       -0.0780692 -0.014013459 0.0246107 0.14385006
0002e0 1a 5d bc bd dc 3b b5 3d 73 71 45 bd 44 9e 21 be
       -0.09197445 0.08849308 -0.048203897 -0.1578303
0002f0 40 69 41 3e 87 b7 c8 bd f1 85 f1 bd 40 da 12 be
       0.18887806 -0.0980063 -0.117931254 -0.14341068
000300 ae 14 1d 3c b8 34 da bd 64 90 10 be 0e e1 60 3d
       0.00958745 -0.106545866 -0.1411758 0.05490213
000310 e5 5d 16 be 2e e2 41 3f 87 13 c5 bd f5 43 33 bd
       -0.14684255 0.7573575 -0.09622865 -0.04376598
000320 fc dc 3c 3e 20 21 c9 3d e9 27 b1 bd 1a 2c 5b 3a
       0.18443674 0.09820771 -0.086501904 0.00083607587
000330 3a af b6 bd 5b 51 08 bd ae 8a 30 be 34 de 21 3e
       -0.089201406 -0.03328071 -0.17240402 0.1580742
000340 a7 ae 28 3e 16 f9 48 3d 54 61 0d be 24 91 08 3e
       0.16472875 0.04906567 -0.13806659 0.13336617
000350 47 80 71 3d 05 03 79 be 4e 0d 25 be 74 24 a9 bc
       0.058960225 -0.24317558 -0.16118357 -0.020647265
000360 7d 3f 6f 3e ab ae 0f bd b0 b3 ca bd 96 95 a0 bd
       0.23364063 -0.035078686 -0.09897554 -0.07841031
000370 94 73 a6 bd 39 e9 d8 bc 4c 42 a8 3d 4d da 80 3d
       -0.081275135 -0.026478397 0.0821577 0.062916376
000380 41 6e 46 3d 28 10 fa bd 70 b0 3d bd b0 1e c5 39
       0.04844499 -0.12210113 -0.046310842 0.00037597632
000390 72 f7 2c 3e 98 66 12 be ea 13 29 3e ab d3 67 3b
       0.16891268 -0.14296949 0.16511503 0.0035373967
0003a0 2d e5 f2 3d 70 7e 32 3c 7b eb c2 bd 02 ae 16 bc
       0.11860118 0.010894403 -0.095175706 -0.00919676
0003b0 2b e1 45 be 47 03 e4 3d bb 36 d5 bd b2 4b 46 3d
       -0.19324176 0.111334376 -0.1041083 0.048412032
0003c0 bd af 4d bd 98 91 07 3e 9e 7c 40 be d8 28 2d 3c
       -0.050216425 0.13239133 -0.18797538 0.01056882
0003d0 fe 34 a8 bd 3c 3c 48 bd 70 35 4a 3d 96 50 f9 3d
       -0.082132325 -0.04888557 0.04936737 0.12173574
0003e0 4b 49 88 3c 98 2b 2d bd a9 05 f7 bb fe ef 98 bd
       0.016636511 -0.042277902 -0.0075385165 -0.0746765
0003f0 db 1a b2 3b 63 c3 26 3e fa 56 b8 3d cb 8d 34 be
       0.0054353303 0.16285472 0.090009645 -0.17632215

critic_body.layers.0.bias f4 [64]
000000 1e 67 64 3c 26 fd 43 3d c3 86 9f 3d 78 9d d2 3d
       0.013940601 0.047848843 0.07789376 0.10283941
000010 47 d7 13 3d 68 09 c1 bc 48 14 2a 3d b8 5a dd 3b
       0.036093976 -0.023564056 0.041523248 0.0067551993
000020 ce c8 54 bc aa 57 d7 3c 76 ea 28 3d 9c cc 3d 3d
       -0.012987329 0.026286919 0.041239224 0.04633771
000030 b9 2e 18 3d d2 4f 98 3d e0 b9 ea 3d 6d d6 c2 3c
       0.037153933 0.074370995 0.11461234 0.023783887
000040 7e 0c 91 3c a2 84 21 3c 2b 93 b2 3c 99 6a 15 3e
       0.017706152 0.009858282 0.02179869 0.14591445
000050 8a fa a3 3d d9 2d a1 3d ac 6a ba 3c bb 8b 83 3d
       0.08006771 0.07870073 0.022755943 0.06423136
000060 69 b4 0e 3e 15 fd 8d 3c a3 0f aa 3d 3a 61 20 3c
       0.13936009 0.017332593 0.08303764 0.009788806
000070 ab b2 e6 3c a1 c5 3f 3d 74 b8 de 3c 21 ed 12 bd
       0.028161367 0.046819333 0.027187563 -0.035870675
000080 e4 52 0d 3d 1e 26 8f ba 47 3d bd 3d 21 2a 2f 3d
       0.03450288 -0.0010921394 0.09240203 0.042764787
000090 74 8b d6 3c e2 5b 75 3d 54 99 87 3d 31 bd 9e 3b
       0.026189543 0.05990208 0.06621042 0.0048443307
0000a0 cf fb 14 3d 17 bf 1b 3d cb af cb bc 9b cb 59 3d
       0.036372956 0.038024034 -0.024864098 0.05317269
0000b0 ea a8 63 3d 0c c6 44 3d ba c0 70 3d 94 aa 0d 3d
       0.05558101 0.048040435 0.05877755 0.034586504
0000c0 62 6e 10 3c 9c d7 42 bb 56 c5 07 3d 32 60 b8 3b
       0.00881538 -0.0029730564 0.03314718 0.0056267017
0000d0 91 31 f6 bc 9f d0 5b 3d 67 61 1b bb 45 74 8e 3d
       -0.030052932 0.053665753 -0.002370918 0.069557704
0000e0 4f f9 e2 3b c4 84 d7 3d 5b aa b0 3c 41 91 87 bb
       0.0069266926 0.1052337 0.021565607 -0.0041371887
0000f0 3e 94 b2 3c 79 85 cf 3c bd da b3 3d d6 47 12 3d
       0.021799203 0.0253322 0.087819554 0.03571304

critic_body.layers.1.weight f4 [64, 64]
000000 f9 0a 91 3d 6d 84 0e be 08 14 d4 bb 19 5f c3 be
       0.07082171 -0.13917704 -0.0064721145 -0.3815849
000010 07 29 91 3d 5d 40 5a be 69 a4 ed bd bc d3 bd bc
       0.070879035 -0.21313615 -0.116036244 -0.023172252
000020 29 21 21 3d 9f f7 9b bc 2e fb b0 3d 0a 14 2d 3e
       0.039338265 -0.019038973 0.08641659 0.16902176
000030 01 7d 81 3d 82 86 81 bb 97 5c 5d be 19 f1 f2 bd
       0.06322671 -0.003952802 -0.21617351 -0.11862392
000040 41 24 e0 bd e5 e4 09 3d a6 1b 0e be 77 8d 43 be
       -0.10944415 0.033665556 -0.13877735 -0.19096933
000050 12 de 96 3d 21 ea 05 be ad a3 4c 3d d6 20 68 3d
       0.07366575 -0.13077594 0.04996078 0.05667194
000060 c8 14 1d bd 6a e7 0e bd 74 05 17 3d c4 22 90 3d
       -0.038349897 -0.034888662 0.036870435 0.07037881
000070 5b d0 c2 bd 08 0a 10 be 01 70 25 be 04 9a 1c be
       -0.09512397 -0.14066327 -0.16156007 -0.15293127
000080 63 2a 12 be c7 c0 c8 3d 08 b4 ab bd c8 39 a9 be
       -0.14273982 0.09802394 -0.083839476 -0.33051896
000090 99 2f 3b 3e 6d a9 d9 3c 9e 8e 2f bc da 93 e3 3c
       0.18279876 0.026570046 -0.010715155 0.027780462
0000a0 eb 1c 13 be 6a 9b ca 3d 79 6b 23 3e 66 7f bf bc
       -0.143665 0.09892924 0.15958966 -0.023376178
0000b0 95 2e 64 be a2 1b 31 3e 3f 1d d5 3d 9a b8 3d 3e
       -0.22283395 0.17295697 0.10405969 0.18527451
0000c0 ff 84 45 bc 4a 7a 51 be d7 cb 2f 3e 1d 5a 87 3c
       -0.0120556345 -0.20456806 0.17167602 0.016522462
0000d0 76 70 b1 bd 8c f4 5a bd 84 dc 21 be 57 65 07 be
       -0.08664028 -0.053455874 -0.15806776 -0.13222252
0000e0 e5 30 39 be 76 25 4d be 47 b8 45 3e 67 f2 53 3e
       -0.18085058 -0.20033821 0.19308577 0.20697938
0000f0 f2 c6 4c be bf d0 75 3c 67 ad 45 3e 74 df 1f bd
       -0.19997767 0.015003382 0.19304429 -0.03903146
000100 8c 70 d8 bd 04 a2 1a bd 62 de 0d 3e 4f d7 33 3e
       -0.105683416 -0.037752166 0.13854364 0.17562602
000110 4f a8 5b 3e 70 60 9a be 3b 2e 8d bd a6 9f 80 3d
       0.21450923 -0.301517 -0.068935834 0.062804505
000120 58 e4 4d be 7c ff 91 bb 34 23 0e bd 20 90 b0 3d
       -0.20106637 -0.004455505 -0.03470154 0.0862124
000130 14 f7 45 3d 25 44 ae 3d 5b dc c2 3d 4c 9a 29 bc
       0.048331335 0.08509091 0.09514686 -0.010351729
000140 48 95 12 3e ee 6b c1 bb 82 d5 98 3c cf ca 20 3c
       0.14314759 -0.005902759 0.018656496 0.009813978
000150 a4 7c 38 bd 5c 69 d3 bd 92 f1 88 3c 49 c2 7d 3d
       -0.04504074 -0.1032283 0.016716752 0.061952863
000160 13 9d 76 3e 6c c9 07 3e 91 09 58 be 24 11 50 be
       0.24083357 0.1326043 -0.210974 -0.20319039
000170 3c eb 38 3c c0 c2 3a bd 7b 6c 20 bd e0 ee 01 be
       0.011286553 -0.045595884 -0.039165955 -0.1268878
000180 8b 05 8a bd 42 4d b3 be d2 cb 24 be f7 0c 74 bc
       -0.067393385 -0.3501988 -0.16093376 -0.014895669
000190 d1 c8 91 bd 16 c6 40 3c d4 60 d6 3c ba 6e 7a bd
       -0.07118381 0.011765977 0.026169218 -0.061140753
0001a0 8c aa 96 3e 2b 8a a4 3e 1d 2c 2d 3e f0 01 d9 bb
       0.29426992 0.32136664 0.16911359 -0.0066225454
0001b0 fd d8 5d 3e 79 01 d1 3d bb 5e a1 bd 6c bc e2 bd
       0.21664806 0.10205359 -0.078793965 -0.11071095
0001c0 f0 c8 d4 3b 8f 70 52 bd 87 f5 cd 3a c3 1d 35 bd
       0.00649368 -0.051376875 0.0015713432 -0.044217836
0001d0 e6 f6 a1 bd aa 47 2f 3e b1 ca 06 3e e1 5e 1f 3d
       -0.0790842 0.17117181 0.13163258 0.038908843
0001e0 e7 66 eb 3d 1a ae 34 be e3 43 38 3e cb ff e8 bc
       0.114942364 -0.1764454 0.17994647 -0.028442284
0001f0 79 e8 a5 3d fa 77 4e bd 1f 46 35 3d 29 64 24 bd
       0.08100981 -0.050407387 0.044256326 -0.040134583
000200 e9 a3 90 3c 69 0d 42 be cb 43 2d bd cc 57 d2 bd
       0.017656283 -0.18950428 -0.04230098 -0.10270652
000210 66 37 3a bd b8 5a 1b bd f1 d3 17 bd 82 3d f7 ba
       -0.04546299 -0.037928313 -0.037067357 -0.0018862935
000220 99 90 e8 3d 13 67 53 3e e0 dd 2c 3e d6 73 0c 3e
       0.11355705 0.20644788 0.16881514 0.13716063
000230 55 55 65 3d e2 e7 d1 bd b5 87 69 3e b9 ac 16 bd
       0.055989582 -0.10249306 0.22805674 -0.036785815
000240 cb 6c bd 3d 2d 4c f2 bd 1b 83 cd 3d 56 6f 6f 3e
       0.09249266 -0.118309356 0.10034772 0.23382315
000250 bc a5 9d bd 2a 9f 2d bd ad d8 d2 bd e7 6a 5b 3e
       -0.07697627 -0.04238812 -0.10295234 0.21427499
000260 07 97 0e 3e e2 63 c0 3d c5 5e 24 3e 61 01 bd 3d
       0.139248 0.09394051 0.16051777 0.09228779
000270 e3 7c bf bd 49 76 0e 3e 6d 8b 86 3e be 3b 6a 3e
       -0.09349992 0.1391231 0.26278248 0.22874352
000280 9d 96 1f 3a d7 6e ae 3d 01 30 1e 3e fb 53 23 3e
       0.0006087812 0.08517235 0.15448 0.15950005
000290 70 b9 14 3d eb 86 52 be 80 24 6f 3e 2e 34 e7 bd
       0.03630966 -0.2055928 0.23353767 -0.11289249
0002a0 55 d4 da bd 32 c0 8c 3c 95 9a 02 bd 5c bb 32 bd
       -0.1068503 0.01718149 -0.031885702 -0.04363571
0002b0 14 3b b7 bd 08 5a 2f 3e 0a ef 0c 3e 45 df 6a be
       -0.08946815 0.17124188 0.13763061 -0.22936733
0002c0 f6 94 38 bd c5 dd dc 3d 23 da 7c bd a9 7a b2 3c
       -0.045063935 0.10784487 -0.06173147 0.021787005
0002d0 aa 06 1f 3e a8 92 88 3c 6c 74 19 be 8c f9 29 bd
       0.15529886 0.016671494 -0.14985818 -0.041497752
0002e0 f3 0e 04 3d a9 70 bf bd 63 4c 19 3e 07 4b 85 3e
       0.03224082 -0.0934766 0.14970545 0.26033804
0002f0 a1 41 ef 3d 79 2a 47 3b e2 d7 9b 3d 8d d3 22 bd
       0.116824396 0.0030390306 0.07609536 -0.03975253
000300 80 b7 75 3e 49 d2 b8 3d 70 2e c8 3d 9a 44 30 3e
       0.23995781 0.09024484 0.09774482 0.1721367
000310 ab de 46 3e 1a 9a 62 3c 9e 48 28 3d 15 2f dd 3d
       0.19420879 0.013830686 0.04108488 0.10799996
000320 91 b2 eb 3d 2e 28 2f 3e d2 72 ac 3c 7a 1f 15 3e
       0.11508668 0.17105171 0.021050844 0.14562789
000330 f3 64 e1 3c f5 09 83 be 14 4f 67 3c a4 bc 38 3d
       0.027513957 -0.25593534 0.014117975 0.045101777
000340 54 32 0d 3e 8e e9 b4 bc 5d c8 ac 3c aa 56 60 be
       0.1378873 -0.022084024 0.021091634 -0.2190806
000350 98 75 2a be 45 8c 51 3e 53 43 58 be 4a b9 52 be
       -0.16646421 0.20463665 -0.21119432 -0.20578495
000360 60 08 01 bc 0e 6f 3e bd 7d 6e c4 bd 4e e0 b5 3d
       -0.007875532 -0.04649263 -0.095913865 0.08880673
000370 ca 0c 47 bc 30 80 a1 3d e5 8e 05 3d d7 cd 15 3e
       -0.012149045 0.07885778 0.032606978 0.14629303
000380 c0 16 3f be 38 3a b2 3b 43 d6 0b bd 57 93 95 be
       -0.18661022 0.005439069 -0.034139883 -0.29213974
000390 8f 97 57 bb b5 06 e5 3d 9b ea 26 3d 07 32 40 be
       -0.0032896732 0.1118292 0.04075108 -0.18769084
0003a0 ed 4b 09 be aa f5 37 be 02 f1 48 be b6 9d 08 3b
       -0.1340787 -0.17964807 -0.19623187 0.0020845956
0003b0 5d 27 1e 3e 1d ae 1f be 12 43 1c be a3 0b 2a 3d
       0.15444703 -0.15593763 -0.1525996 0.041515004
0003c0 ec 32 18 3e ec 2f 22 be 16 64 c8 3c fb 67 22 3d
       0.14863175 -0.15838593 0.024461787 0.039649945
0003d0 40 b9 91 bd 44 c8 84 3d 2c 19 a8 bd c0 33 ba 3c
       -0.07115412 0.0648351 -0.08207926 0.022729754
0003e0 11 55 2e 3e 3d 51 a8 3e ac bf bd 3d 10 0c 3d bd
       0.17024638 0.3287448 0.09265074 -0.04615408
0003f0 f4 00 6f 3e 3e 9d 85 bd 5c de ae bd 3e 9b 15 be
       0.23340207 -0.06524132 -0.085385054 -0.14610001

critic_body.layers.1.bias f4 [64]
000000 26 5d e8 3c 06 f3 74 3c d1 d3 80 3d a1 3a fa bb
       0.02836473 0.014950519 0.06290401 -0.0076363836
000010 08 15 31 3d 3f 7a 32 3d 7c 20 95 bc e7 75 06 3d
       0.043232948 0.043573614 -0.018203966 0.032827284
000020 47 27 aa bc 18 ae e7 bb df 48 f5 bc 72 e4 ce ba
       -0.020770682 -0.007070314 -0.029941974 -0.0015784635
000030 d3 88 10 3d 50 56 bc 3c fd c5 e2 3c 70 85 ad 3c
       0.035286736 0.022990376 0.027682299 0.021181792
000040 d1 1b e4 3c af 3c fb 3b 47 b9 2a 3d 31 3a 87 3d
       0.027845295 0.007667146 0.0416806 0.06602896
000050 13 78 c9 3c e7 fd a3 bb 89 87 59 3d 2e 1b fd 3c
       0.024593389 -0.0050046328 0.053107772 0.03089675
000060 33 85 a6 bb 1c d9 25 3d 25 f1 7b 3d 87 ca 36 bd
       -0.0050817966 0.040490255 0.06150927 -0.04462674
000070 95 0a 53 3d 32 bc 8d 3d b5 53 8f 3d 85 08 9b 3c
       0.051523764 0.06920661 0.06998388 0.01892496
000080 f1 12 82 ba 67 d4 c9 bc 76 29 dd 3c 9a 55 1a 3d
       -0.0009923858 -0.024637414 0.02699731 0.037679292
000090 cf e5 ca 3c f6 f3 45 3d 12 a9 75 3d ca 08 5a bb
       0.024767784 0.048328362 0.05997569 -0.00332694
0000a0 65 c8 67 bd 9e 7d 83 bc 90 7f 3c 3d 4d fa 6b 3d
       -0.056587595 -0.01605111 0.04602009 0.057611752
0000b0 f6 aa 55 3d 97 d1 e2 3c 06 ee 63 bc 9e 9b 6b 3d
       0.052164994 0.02768783 -0.01391173 0.057521455
0000c0 00 65 d5 3c c6 b7 1a bd 99 44 7b 3d fe 93 6c bc
       0.026049137 -0.037772916 0.061344717 -0.014439581
0000d0 86 12 c1 3c 01 c6 80 bc c8 1b db 3c c7 8c 19 3d
       0.023568403 -0.015719416 0.026746646 0.03748777
0000e0 32 e9 2f 3a e7 1d e9 3c 00 8d 39 bc a9 58 5c 3d
       0.0006710469 0.028456641 -0.011325121 0.05379549
0000f0 0b df c0 3c 38 d1 3c bd c8 2a 36 bd 1e 70 c8 3c
       0.023543855 -0.046097964 -0.044474393 0.024467524

fc_action.weight f4 [4, 64]
000000 e3 a4 57 3d 90 e3 54 bd 54 f5 b2 3d 34 d7 5f 3d
       0.052647483 -0.051974833 0.08738199 0.054648593
000010 2d e1 64 3d 10 3d 21 3d d7 ae ed bd a3 d5 00 bd
       0.055878807 0.039364874 -0.11605614 -0.03145374
000020 e7 e7 61 3d 3c e4 ff 3d e1 f6 73 bd 9c d9 5c bd
       0.0551528 0.12494704 -0.059561614 -0.053918466
000030 ca 32 91 bd a7 e4 e9 bd 02 61 37 bd 4e 24 ef bc
       -0.07089765 -0.11420565 -0.04477025 -0.029192116
000040 f4 41 79 3c ff cd 6c bd 21 9a 48 3d e9 d1 6f 3d
       0.015213478 -0.05781364 0.048975114 0.058549795
000050 3b ac 04 be ee 90 71 3d 9b 15 10 3d 2e 3e 0f 3d
       -0.12956326 0.058976106 0.035176855 0.03497141
000060 ac 8c 17 3d ac 93 4b 3d c7 74 97 3d 48 27 31 be
       0.03699939 0.049701378 0.073953204 -0.17300141
000070 06 51 11 be 0e cc 27 bd c5 ce 06 be 23 46 14 be
       -0.14191064 -0.040966086 -0.13164814 -0.1447988
000080 00 af 8e 3d ca 61 4b 3d da 9a 00 bd 2b 8f c3 bd
       0.06966972 0.049653806 -0.031397678 -0.095487915
000090 2d 9a c7 3d dd 9f ad 3c f0 5c 99 3d 90 6c f4 bc
       0.097462036 0.021194393 0.074884295 -0.029836923
0000a0 7e 02 9f bd 48 60 3e bd a7 73 9f 3d 64 51 f9 bc
       -0.07764147 -0.04647854 0.07785731 -0.030434318
0000b0 5d 98 13 3d 33 44 ed bc 40 54 91 bd f7 c4 d2 3c
       0.036033977 -0.028963184 -0.070961475 0.025728686
0000c0 de 8e 03 bd be 08 91 3d b6 68 db bd 5e a9 8a 3c
       -0.03211867 0.070817456 -0.107133314 0.016926464
0000d0 5c e5 18 bd bd 66 a2 bc 24 22 10 bd d8 50 a8 bc
       -0.03732811 -0.01982438 -0.03518881 -0.020546362
0000e0 e6 31 14 be 69 d3 15 3d 16 d6 54 3d 1f 05 81 3c
       -0.1447216 0.03657857 0.05196198 0.015749512
0000f0 03 58 6a bd ac 62 6a 3d 77 78 48 3d d7 4d 63 3d
       -0.05721284 0.057223007 0.04894301 0.055494156
000100 e0 d2 9d 3c b3 e2 b0 bd f4 d9 3d 3e 4a 92 07 3c
       0.019265592 -0.086369894 0.18540174 0.008274624
000110 38 72 31 bd cc 2e a4 bd 06 90 0f 3d 82 b2 97 3d
       -0.043321818 -0.08016738 0.03504946 0.074070945
000120 94 e6 af bd fe c5 b0 b9 ac 77 80 ba 0b 41 bd 3c
       -0.08588901 -0.00033716852 -0.000980129 0.023102304
000130 b7 9a 88 3d dd b2 13 3e 58 b3 8b bd bc e8 c4 bd
       0.066701345 0.144237 -0.068213165 -0.09614703
000140 3b 98 d6 bd 22 8d c9 3d 76 83 93 3d b4 1f e2 3c
       -0.104782544 0.09841372 0.072028086 0.027603008
000150 2d 17 45 bd 58 14 34 bd 83 ea 19 3b d7 b7 b0 3d
       -0.048117805 -0.043964714 0.0023485727 0.08628815
000160 80 9a 24 3c d4 a7 b3 bc f8 e4 d7 bd e0 51 4d bd
       0.010046601 -0.021930613 -0.10541719 -0.05012691
000170 84 67 19 3d 99 ad 05 be 5b db 46 bd c5 05 01 bd
       0.037452236 -0.13054504 -0.048549037 -0.031499643
000180 71 b3 76 bd c8 de ea 3d 74 b2 c8 bc 92 b8 6e 3d
       -0.060229722 0.114682734 -0.024499156 0.05828149
000190 11 31 7b 3c d7 02 9e bd 1d 8a be bd 5a 7b cd 3d
       0.015331523 -0.077153854 -0.09303687 0.10033293
0001a0 42 75 87 3d bd 48 2f bd c2 82 08 3d c6 1f 98 3d
       0.06614162 -0.042793978 0.033327825 0.07427935
0001b0 ab 1a 3e bd 58 43 fa bb 50 74 a5 3d cf e7 9b 3d
       -0.04641215 -0.0076374225 0.080788255 0.07612573
0001c0 d4 8d ba 3d 11 7a ec 3d 2a 43 df 3b 6e 79 65 3d
       0.09109083 0.1154672 0.0068134265 0.056024007
0001d0 37 1b 16 bc 4d 17 46 bc 10 e3 e8 bc ef b5 8e 3d
       -0.009161762 -0.012090516 -0.028428584 0.06968295
0001e0 48 6e 0a 3d f7 47 bd bd 0f 9f 6a 3d 81 21 c9 bd
       0.03379658 -0.09242242 0.057280596 -0.098208435
0001f0 27 41 aa bd 77 a0 ac bc 50 73 ec bb 4e 90 bb 3c
       -0.08313208 -0.02107261 -0.0072158948 0.022895958
000200 ef c4 95 3d e7 9e 2f 3d 7d dd 39 bd 82 ec 1e 3e
       0.07312953 0.04287615 -0.045377243 0.15519908
000210 2c 94 ca 3b ac f6 a3 3d b5 d1 96 bc 8b 54 93 3d
       0.0061822142 0.08006033 -0.018410543 0.0719386
000220 08 b0 eb bc 71 4e d1 3d 7e fc ac 3d 1e 75 b7 3d
       -0.028770462 0.1022004 0.084465966 0.08957885
000230 e7 c4 e7 3d 58 42 9d 3d 90 c9 3a 3d a2 0b c6 bd
       0.11316853 0.0767867 0.04560238 -0.096701875
000240 28 aa 59 bd b9 8f 4a bc 15 7b 38 be 87 6d bb bd
       -0.05314079 -0.012363368 -0.18015702 -0.0915175
000250 fa 00 9c bc c4 b8 86 3d 7a 2b f1 3d 85 0b 6d 3c
       -0.019043434 0.0657821 0.117758706 0.0144680785
000260 9c d1 55 3e e3 d8 36 3b f2 19 07 bd 4e 10 02 bd
       0.20880741 0.002790027 -0.032983728 -0.03175383
000270 e7 f4 df 3d 3e 9f 0e 3e b9 35 e1 bb fe 2f 23 bd
       0.10935383 0.13927934 -0.0068728593 -0.03984069
000280 a1 0f e5 bd 5e 0a a6 bd 31 6a 06 bd bd 2e fd bc
       -0.111846216 -0.08107446 -0.032816116 -0.030906076
000290 c9 3c bd bd 07 8b 53 3e 69 72 87 bc d1 f8 8e bc
       -0.092401095 0.20658503 -0.016534047 -0.01745263
0002a0 31 6d 41 3d 9e fe 0a 3d 71 be 09 be cb 08 53 3d
       0.047223274 0.033934228 -0.13451554 0.051522058
0002b0 94 e5 f7 bd fd 04 e5 3c 48 89 ed bc 68 5c 0a 3e
       -0.121043354 0.02795648 -0.028996125 0.13511813
0002c0 69 a5 e6 3c 54 ed 3d bd 55 49 a8 3d 7f 33 7b bd
       0.028155046 -0.04636891 0.08217112 -0.061328407
0002d0 90 83 64 3e 47 01 33 3d f3 1b 6d 3b 32 77 8f 3d
       0.22315812 0.04370239 0.003617999 0.070051566
0002e0 7b 0f 5c 3d 39 a4 b6 3d db 49 db bd dd af 41 bd
       0.0537257 0.08918042 -0.10707446 -0.047286857
0002f0 a0 4e 4d 3d 7e 12 b1 bd 9c d4 c7 3c 7f 06 fc bd
       0.05012381 -0.08646105 0.024393372 -0.123059265
000300 8f 11 1b 3e e4 f4 9d bd a9 10 8a bb 49 f4 5e 3d
       0.15143417 -0.07712725 -0.004213412 0.054432187
000310 20 90 01 3d d0 e9 e9 3d ff 11 07 3e fc aa fc bd
       0.03163159 0.11421549 0.13190459 -0.123373
000320 0f 0a b7 bd 34 7f c0 bd 50 9a a9 3d 8f f3 af 3d
       -0.089374654 -0.09399262 0.08281386 0.08591377
000330 82 e6 c1 3d 08 b7 fd bd 5e 2c 16 be 75 37 2a 3e
       0.09467794 -0.12388426 -0.14665362 0.16622718
000340 77 18 28 3d 9b 41 33 bc f7 82 88 bd c1 17 24 3d
       0.041038956 -0.0109409345 -0.066656046 0.040061716
000350 4e df d9 3b c7 33 33 bd ae cd 92 3d b0 20 fe bd
       0.0066489344 -0.04375055 0.071681365 -0.124085784
000360 e0 45 91 3c 19 cf 27 be c6 be 8e 3d fd cc 7f 3e
       0.017733514 -0.16387595 0.06969981 0.2498054
000370 b8 41 09 be 04 cd 58 bc 8c 40 ac 3c e2 88 9c bd
       -0.13403976 -0.013232473 0.021026872 -0.07643296
000380 6c 2c 3c 3e c3 34 7a bd dd 7c 8d bd 1b 5b 10 be
       0.1837632 -0.061085474 -0.069085814 -0.14097254
000390 22 c8 82 bd 65 fc 87 3d 16 0d 9b 3a e1 93 e2 3c
       -0.063858286 0.06639937 0.0011829461 0.027658405
0003a0 e6 55 42 3d 04 39 47 3e ee 46 65 3d e6 c0 77 bb
       0.0474452 0.19455343 0.055975847 -0.0037804185
0003b0 d3 54 93 bd 77 a7 d2 3d df e3 ae bd cf 45 91 bc
       -0.07193913 0.10285848 -0.08539557 -0.017733483
0003c0 d1 ce 6b 3d 7e e4 8b 3c af ea 0e bd 6d 88 f2 bb
       0.057570282 0.017076727 -0.03489178 -0.007401517
0003d0 c4 5c 5e bd 79 f2 d7 bd 70 cf 08 be 6c eb 77 ba
       -0.054287687 -0.10544295 -0.13360381 -0.0009457383
0003e0 a1 04 ba 3d 28 4c 51 3b 10 be 84 bc 77 a5 0e 3d
       0.09082914 0.0031936262 -0.01620391 0.03482577
0003f0 b2 9b 12 3e 00 ff 2a 3c 14 ed 5a 3c 7a 86 93 3b
       0.14317206 0.010436773 0.013362188 0.004502115

fc_action.bias f4 [4]
000000 b5 ad a4 3c cf 82 3e bc 39 09 56 bc 34 2e 27 ba
       0.020102361 -0.011627867 -0.013063722 -0.0006377429

fc_critic.weight f4 [1, 64]
000000 a6 10 e8 3d 3a 25 b4 bd 93 12 f9 3c 13 69 d8 bd
       0.113313004 -0.08796163 0.030404365 -0.10566916
000010 38 7f 4e 3d 57 1a 15 3d fe 87 b7 bc ef bb 1f 3d
       0.050414294 0.036402073 -0.022403713 0.038997587
000020 7c 2a 27 bd 80 9e 84 bd 90 45 ff bc 46 a7 28 be
       -0.040812 -0.06475544 -0.0311611 -0.1647006
000030 aa 3f 13 3d 5b 17 44 3d 25 2a 40 3d 6c 54 c3 3c
       0.035949387 0.047873836 0.046915192 0.023843966
000040 e6 f3 02 3d 3f 08 a9 bd 6c 59 db 3c 35 c6 ca 3c
       0.03197088 -0.08253526 0.026776038 0.024752716
000050 75 53 ae bd 74 74 80 3c ac 9e b5 3d fe d5 d6 3c
       -0.08512012 0.01568053 0.08868155 0.026225086
000060 d9 52 1c be aa 29 61 3d 8a 61 04 3d 28 3e 1e bd
       -0.15265979 0.054971375 0.032319583 -0.038633496
000070 7d fe 0e 3d 24 2f 0a 3c bd 61 64 3d 6b df b5 3d
       0.034910668 0.008434091 0.055757273 0.08880504
000080 a9 07 ae bd 4b 21 b6 bd 97 87 ba 3c 4a 9b bc 3d
       -0.08497555 -0.08893069 0.022769732 0.092093065
000090 7d 70 7b 3d 3e 28 bc 3c 6c d9 1f 3d 54 93 ea bd
       0.061386574 0.022968408 0.03902571 -0.11453882
0000a0 80 78 94 bd 12 63 b0 bd 5b bf c5 3c d3 70 b2 3d
       -0.07249546 -0.08612646 0.024139097 0.08712926
0000b0 2a e7 ce 3d fc 16 f8 3c 30 05 1a bd 1a b7 31 3d
       0.10102685 0.030284397 -0.037602603 0.04338751
0000c0 b1 64 40 3d 45 3e a9 bd b9 76 f5 3c 85 0d 87 bd
       0.046971027 -0.0826383 0.029963838 -0.065943755
0000d0 61 56 bb bc ac e2 c0 bc b5 50 84 3d 17 6c 5f 3d
       -0.022868337 -0.023545586 0.06460706 0.054546442
0000e0 0e db 78 bc a1 7a 38 3d f0 02 41 bd 09 1f 7a 3d
       -0.015188945 0.045038823 -0.047121942 0.061064754
0000f0 cb 44 6f 3d c6 53 2c bd 7f 1f 36 bd 9c 0e 17 bd
       0.058415215 -0.04207208 -0.04446363 -0.036879167
