p2_continuous-control/checkpoint_0_crawler_30.pth (torch, 708926 bytes, 12 tensors)

std f4 [20]
00000000: 64ae dcbe 4e71 abbb 91ce 67be b4c5 8abd
00000010: 86ee b4be 199b 96bd 609b 85be 52f3 41be
00000020: 525f 84bf d19e 04bf 3b5c 6abf eaf2 4cbf
00000030: 51ed 86bc 2e1c 513c eed8 993c f7af 233d
00000040: 1a90 27ba 004f 37bd 191e 06be ebd0 31bd
-0.431018 -0.005232013 -0.22637393 -0.0677599 -0.3533823 -0.07353801 -0.26095104 -0.18940476
-1.034159 -0.51804835 -0.9154698 -0.8005816 -0.016470583 0.012763066 0.018780198 0.039962735
-0.0006392017 -0.044753075 -0.13097419 -0.04341213

actor_body.layers.0.weight f4 [256, 129]
00000000: 2c39 5fbb cd15 983c eeb7 dcbd a319 c9bd
00000010: 414a 1bbd 8d67 47be ab0f 853d 0083 013d
00000020: d2c7 e33d 2673 af3d 6dfd 263d b99b dabd
00000030: 6ef1 89bd 32fa a73b 287a ed3d 1c7c 1f3d
00000040: 5153 5cbc 4491 653b af47 d5bd 340a 983d
00000050: 408f 86bd a700 e0bd 738f 0c3d 9008 983d
00000060: 29dc 80bd 4ae3 01be ca7d 10bc 5763 0abe
00000070: 2f39 aabd ad1b c3bd e0e0 2abd d5ae 81bd
00000080: da77 3ebd ed9d c43c 9794 69bd c254 4e3d
00000090: 8310 c9bd 3d26 bdbd 89ec 84bd 1425 143d
000000a0: 1783 a63d 6ac3 b03c 5876 fbbb 8493 f7bd
000000b0: 6ade aebd 98e9 a93b 898a d53d 7117 093d
000000c0: ee8c 253d 135d 92bc 4e6c cb3c 3de8 14bd
000000d0: 872a 633d 80a4 203e ac78 fabc 86e0 c63d
000000e0: 2831 93bd dfc5 193d 6f67 b7bd b2ee be3d
000000f0: 3f06 2dbe c7fe 5d3d 6857 ca3c 374b 2fbd
00000100: 5d27 e53d 53f8 a63c 5148 13bd 81b6 9c3d
00000110: e73e 173d 317c 593d a8e6 51bd 05ce 46bc
00000120: 062b 7cbd 7478 aebd 2973 d9bd 4486 efbd
00000130: 0bd7 4dbc 3d54 8d3d ed5d a3bb eac7 80bd
00000140: 8ff5 e93c 4712 333b cafa edbc ff01 963d
00000150: 7d40 dabd 0a4d 6a3d f370 4b3d bc1e e23d
00000160: 2131 e3bb e58e cfbd 5089 483d 9a08 1a3d
00000170: 61b6 4c3d d452 613c 632a d63d cffc a63d
00000180: 120c 293b e612 4dbd 5b7f 953d 165f 853d
00000190: 3075 83bd 4592 253d 3af4 a5bd 0feb 003d
000001a0: f7bb 2ebd 34d8 6cbb 72d7 e33b cc3f 9b3d
000001b0: 98f0 6cbd 3b2c 093e fe59 a83d b380 b9bd
000001c0: 56b9 1fbd ce54 71bd 9085 90bd 11c5 633d
000001d0: c221 67bd bd72 5fbd d0a9 bf3d 4577 003e
000001e0: 251d babd 14e6 d63d a05b a7bd c905 253e
000001f0: 36e1 2dbe 4841 c5bb c93c 8abd b638 71bd
00000200: 0cb5 f23d cdb9 debd 22b2 13bd 7f4c 11bd
00000210: b2e3 5fbd 0865 53bd e129 19bc 05ff bdbc
00000220: bb1a ea3d 52d7 4bbd 0e4b 353d f809 b43d
00000230: efa5 cfbc 1f7f 3e3b d3dc b4bd c1ee 00bd
00000240: 86fb 713b 9091 d3bd da3e 4bbd 39c5 aabc
00000250: ec85 5e3c ad1d de3b 45fd b0bd 5268 3f3d
00000260: 042e 153c 8cc9 ccbb 535a 0f3e 76db e93d
00000270: 676f 1a3b d599 8ebc bce4 c73c 04d2 8fbc
00000280: 064d b43a d341 923c b2db 5e3d 15d5 63bc
00000290: b477 d53c 60de d6bc 88c9 113d 8767 e33b
000002a0: ef2d 383e 65ef b2bb 9ab7 81bd a50b aebd
000002b0: c1ce f13b 557f 4bbc 65dd df3d 2d27 31bd
000002c0: a999 95bd 6a68 d4bc c9b6 5ebd 2b18 4cbc
000002d0: d44c d33d 9e46 5a3d bf8a dc3d 4937 793d
000002e0: 2493 e63d f69d 2638 152c aa3d 4246 263b
000002f0: 4064 613e 0b09 bfbc 0823 933c 8866 d73d
00000300: b352 073e ff75 4cbc 28d2 4e3d 9201 9f3d
00000310: 81b8 1b3e d9e6 21be 86cb c1bd 75a6 89bd
00000320: 9e12 f6bc 7ef6 5f3c 10e2 543c 3d69 763d
00000330: f77f 96bd 9bcc c5bc 2e97 c83c 7549 e13b
00000340: 2565 5fbe cd7c 40bc 0b42 45bd 040f 73bc
00000350: db2e 8abd abc6 983d 1a32 35bc c489 c3bd
00000360: 11d9 67bd 9847 cbbd 03f6 cdbd 9107 d4bc
00000370: e6b8 d8bc d0b6 79bc fba6 ebbc 5230 c03c
00000380: b583 e5bd 6cc0 51bd fb56 a63d acc6 62bd
00000390: e4a9 b03d 9b9d dabd a4b5 ff3c eeae 613c
000003a0: c52f 42bc 0c41 e4bd 42c9 36bc 9101 933c
000003b0: 467d 303d c7aa 34be 2fc4 9fbb 2dbc 0cbd
000003c0: 49d4 763c a8e5 423d 9bb5 af3c 35ff c9bd
000003d0: dab8 cbbd b4cf 50bc 9d5f 36bd a537 8e3d
000003e0: a598 c1bd c112 42bd c219 a0bd 6844 e3bd
000003f0: f5e9 80bd c1fb 97bd f17f 093d 91ee 68bb
-0.0034061177 0.018565083 -0.10777269 -0.09819343 -0.03791261 -0.19473095 0.06497129 0.031619072
0.11122097 0.08566885 0.04076903 -0.10674233 -0.06735502 0.005126261 0.11595565 0.03893672
-0.013447599 0.0035029212 -0.10414063 0.07423821 -0.065702915 -0.109376244 0.03431649 0.07423508
-0.06291992 -0.1268436 -0.008819053 -0.13514458 -0.08311688 -0.09526763 -0.041718364 -0.06332175
-0.046501018 0.024001086 -0.057026472 0.0503738 -0.098176025 -0.09235809 -0.06490428 0.036168173
0.08130472 0.021577556 -0.00767402 -0.12088683 -0.08538516 0.0051853172 0.10426814 0.03346962
0.040417604 -0.017866647 0.024831917 -0.036354292 0.05546048 0.15687752 -0.030575119 0.09710793
-0.0718711 0.03754222 -0.08955275 0.09322871 -0.16896914 0.054198053 0.024699882 -0.04279634
0.111891486 0.020382082 -0.03595764 0.07651997 0.036925223 0.053096954 -0.05124536 -0.01213408
-0.061564468 -0.08519068 -0.10617668 -0.11695531 -0.012563477 0.06900833 -0.004985562 -0.062881306
0.028559474 0.0027324127 -0.02905025 0.073245995 -0.106568314 0.057202376 0.049668264 0.11041018
-0.006933347 -0.10134677 0.048959076 0.03760586 0.049978618 0.013752658 0.104573034 0.08153688
0.0025794548 -0.05006685 0.07299682 0.06512277 -0.06418836 0.040422697 -0.08103223 0.03147417
-0.042659726 -0.003613961 0.0069531733 0.07580528 -0.057846636 0.13395779 0.0822029 -0.090577506
-0.03899511 -0.058918767 -0.07056725 0.05560786 -0.05642868 -0.054552782 0.09358561 0.12545498
-0.0908759 0.10493103 -0.08171773 0.16115488 -0.16980442 -0.006019745 -0.06749875 -0.058891974
0.11850938 -0.108752824 -0.036058553 -0.035473343 -0.054660507 -0.051610023 -0.009348364 -0.023192892
0.1143088 -0.049765892 0.04426103 0.08790964 -0.025347678 0.002906747 -0.088311814 -0.031477693
0.0036923601 -0.10330498 -0.049620487 -0.020845996 0.013581734 0.00677844 -0.08642057 0.046730347
0.009105209 -0.006249612 0.139993 0.11418812 0.0023564936 -0.017407337 0.024401061 -0.017556198
0.0013755865 0.017853653 0.054408737 -0.013905783 0.026058055 -0.026229084 0.035592586 0.0069398317
0.17986272 -0.005460667 -0.06333847 -0.08498315 0.0073793833 -0.012420495 0.109308995 -0.04325025
-0.07304699 -0.025928695 -0.054373536 -0.012456934 0.10317388 0.053290002 0.10768651 0.06084374
0.112585336 3.9724597e-05 0.08309189 0.0025371467 0.22010899 -0.023319742 0.01796104 0.10517603
0.13215141 -0.012479304 0.05049339 0.077639714 0.15207101 -0.15810718 -0.09462647 -0.06721202
-0.030038174 0.013669608 0.012993351 0.060158957 -0.07348626 -0.024145415 0.02448615 0.006875212
-0.21815927 -0.011748505 -0.048158687 -0.014835123 -0.06747218 0.07459768 -0.011059308 -0.09547761
-0.056603495 -0.09925765 -0.10056689 -0.025882514 -0.026455354 -0.01524134 -0.028766146 0.02346054
-0.11206762 -0.0512089 0.08122059 -0.05536525 0.08626154 -0.10674592 0.031214543 0.013774617
-0.011852209 -0.11145219 -0.011156382 0.017945083 0.04308822 -0.17643271 -0.004875682 -0.034359146
0.015065261 0.0475823 0.0214489 -0.0986313 -0.09947367 -0.012744833 -0.044524778 0.06944207
-0.09452943 -0.047381166 -0.07817413 -0.11097032 -0.06294624 -0.07421065 0.03356928 -0.0035542587

actor_body.layers.0.bias f4 [256]
00000000: 2b6e c4bc bde6 6fbd f74d 573b 5dfb 503c
00000010: 2265 ebbc 06d9 1cbd 5711 093c 683c 343c
00000020: 6452 923c e08e 9ebd 4b7e 64bb 39bf dabc
00000030: c2a5 293d 6b2e 09bd 8e49 86bc fe5a df3b
00000040: b5e5 993c 8da2 dd3b cbb3 ebbc dae4 17bc
00000050: 2efa 95bc a4c0 c4bc ef9d 8b3b da68 a93c
00000060: b863 a73a c010 9e3c 3a8a 19bd 6490 ed3a
00000070: 0634 323c 4bc5 81bc 6bbb 91bc 433d abbc
00000080: ec40 423d 784c bc3a c3a4 823c e175 c43a
00000090: 4e21 60bc 2d1c 77bc ef11 e63c f6bd 773c
000000a0: ef51 61ba 7eb3 3fbd bce7 22bc b1d8 8e3c
000000b0: 1f90 34bd b2b6 423c 32a4 46bc e6ce 14bb
000000c0: c91b 86bd 8121 1e3c e424 863c 06b0 79b9
000000d0: ae9b 22bc 9db2 6a3c 10f4 65bb 518b 95bc
000000e0: 95f5 edbc 82be d4bc 3dcf d8bc e528 08bd
000000f0: b718 cd3c c33f 9f3c 0a90 29bb 6f7d 57bc
00000100: 3161 bb3b 85d4 703a c226 823c 6c68 9bbc
00000110: bd08 75bc cebe 4fbb 6224 583c c1a8 f1bb
00000120: 66a1 87bc c161 d6bc adf9 583b 7226 d93b
00000130: 5579 82bd 7297 d73c 5cac 7c3c c84e 0b3d
00000140: a5db 92bc bb17 e13b b43a 0ebd 50b6 6ebc
00000150: d2ef 093c a0af 39bc af5e 48bd da06 213c
00000160: 0632 cbbc 26fb dabc 4272 1ebd 3c85 8a3b
00000170: e561 9fbc 10e0 32bc 9bdb 803c 1a38 0dbd
00000180: a61c 0bbd 185e eabc 18c3 a4bc 4c8e 89bb
00000190: 110f 933c 65ab bb3b 676a 16bd 17e5 573c
000001a0: cd16 203c 5865 99bc de01 ba3c f5c0 56ba
000001b0: 6b4b 0fbc f411 163d ba65 53bc c4af d23c
000001c0: 88f2 e0bb 9a16 b43c c74c 3dbd e307 4f3c
000001d0: 208b 563d a159 73bc b85c 973c 2f46 c5bc
000001e0: 29bc db3c 47dd 133c 15d8 40bb 1a16 d5bb
000001f0: 6408 233c 4903 c3bc 782f bdbc 418c a2ba
00000200: ea3b 7cb9 6c4a 1f3d 2d8c c23c 585c 12bd
00000210: 79a3 1abd 9112 45bd 85e6 89bc 0ec1 80bc
00000220: db4c aaba 1248 0fbd 47b6 59bc 5709 4abd
00000230: a588 463c 0329 55bc 215f d83c 1845 ee3b
00000240: 8d38 b13c befe 74bb 0b33 7eba 1d9a 29bc
00000250: 3fec c9bc e1dd e5bb dcf6 09bd 84f7 d8bc
00000260: e05d e5bc 2d4e 863c c71d 51bc f8ab 74bb
00000270: c85f 0e3c 3943 5dbc 423c 94bc 3e85 96bb
00000280: 14e5 a93c 382e d83b 18e7 80bc 6800 09bd
00000290: 4f11 8dbc 8b60 44bc 4eb6 903c 0076 61bc
000002a0: aa91 0bbc d00e 423d 8620 fcbc 716e 86bc
000002b0: 5239 05bd 8977 b8bb fe4d f4bc 95f8 e2bc
000002c0: d8ea 36bd d7a9 6dbc 4f25 54bd 8e79 4dbd
000002d0: ba6b 463b 4f1b 9ebc 3a9e 4d3c ae8d b7bb
000002e0: c0b4 d9bb 940e f73b 261d 5e3c 6a2f af3c
000002f0: 4e59 49bd e079 9fbb 58e6 20bb 5fa7 71bc
00000300: ebef 8f3c b941 903c 6254 a73c c57b b1bc
00000310: 24e7 323c 3a8a 95ba 6a58 42bc 7c25 babc
00000320: 7252 753c f0af d33c d8c5 9cbc fe52 91bc
00000330: a8f8 1ebc 75c9 b8bc 411f 93bc 77b4 203c
00000340: 10f7 b63b 6146 eb3a e88d 9dbc e72e b53c
00000350: 59da 853b 77d6 7fbb 42be c8bc fd1c 9f3c
00000360: 9411 f7bc aa73 3ebd 00a5 4fbc 4ba8 9c3c
00000370: 6250 7e3a c564 99bc 66a4 a93c fab1 2bbd
00000380: 0256 61bb 1319 52bd 33d3 5dbd 13db c13c
00000390: ddff d0bc 4aa0 5cbd 8b92 9abb 9476 0b3b
000003a0: 2173 fb39 67be a0bb e1a8 b6bb df9f cabb
000003b0: 2e16 cfbb f8f2 493c 64c4 ffb9 ec79 14bd
000003c0: 3be7 fbbc c1bd 913c c271 ecba 464a dbbc
000003d0: e73b 1bbd 1f9a 583b 3139 e9bb 7b95 573b
000003e0: e77d c03c 3474 ef3c 2281 07bd 1084 8ebc
000003f0: 1348 05bd 23e7 a8bc 6ac8 6fbc 0f18 2a3b
-0.023978313 -0.05856966 0.0032852867 0.012755242 -0.028734747 -0.038292907 0.008365951 0.01100073
0.017861553 -0.07742095 -0.0034865316 -0.02670251 0.041417845 -0.033491533 -0.016392495 0.006816267
0.01878629 0.0067637623 -0.028772255 -0.009270871 -0.018307772 -0.02401764 0.0042607705 0.02067988
0.0012770807 0.019295096 -0.03748534 0.0018124697 0.010876661 -0.015841147 -0.017789563 -0.020903235
0.047425196 0.0014366051 0.015947705 0.0014988744 -0.013679815 -0.015082401 0.028084723 0.015120974
-0.0008595278 -0.046802036 -0.009942945 0.01743731 -0.044082757 0.011884378 -0.012124108 -0.002270633
-0.06548268 0.009651543 0.016375013 -0.00023812064 -0.009924812 0.014324811 -0.00350881 -0.018254908
-0.029047767 -0.025969747 -0.026466006 -0.033242125 0.025036199 0.019439584 -0.0025873207 -0.013152464
0.005718373 0.00091869413 0.015887622 -0.01897069 -0.014955697 -0.0031699422 0.013192268 -0.0073748534
-0.016556453 -0.02616966 0.0033107803 0.0066268975 -0.063707985 0.026317332 0.015421953 0.03401068
-0.017927 0.006869284 -0.034723952 -0.014569834 0.008418994 -0.011333376 -0.048918422 0.009828294
-0.024804126 -0.026731085 -0.038683183 0.0042273086 -0.01945586 -0.0109176785 0.015729716 -0.03447733
-0.03396287 -0.02860932 -0.02011256 -0.0041978713 0.01795152 0.005727219 -0.036722567 0.013177178
0.009771061 -0.018725082 0.022705968 -0.0008192205 -0.008746008 0.036638215 -0.0129026715 0.025718577
-0.0068648495 0.021983434 -0.0462158 0.012636158 0.052378774 -0.014852912 0.018476829 -0.024081318
0.02682312 0.009024925 -0.002942567 -0.006502879 0.009950731 -0.023805277 -0.023093924 -0.0012401418
-0.00024054913 0.038889334 0.023748482 -0.035732597 -0.037753556 -0.04811341 -0.016833553 -0.015717056
-0.0012992875 -0.03498084 -0.013288087 -0.049325313 0.0121175395 -0.013010266 0.026412548 0.00727142
0.02163341 -0.0037383283 -0.0009696937 -0.010351685 -0.024648784 -0.0070149754 -0.03368269 -0.026485212
-0.027998865 0.016394699 -0.012763447 -0.0037333947 0.008689828 -0.013504797 -0.01809514 -0.0045935204
0.020739116 0.0065973066 -0.015735194 -0.033447653 -0.017220167 -0.011985908 0.017665055 -0.013761044
-0.008518616 0.047377408 -0.030777227 -0.016410084 -0.032525368 -0.005629484 -0.029822346 -0.027706424
-0.04465756 -0.014505825 -0.051793393 -0.05016475 0.0030276612 -0.019300131 0.012549931 -0.0056016063
-0.0066438615 0.0075395796 0.013556754 0.021384913 -0.049157433 -0.0048668236 -0.0024551358 -0.014749377
0.017570456 0.017609464 0.020425979 -0.021665463 0.010919366 -0.0011408993 -0.0118619 -0.022722952
0.01497327 0.02584073 -0.019137308 -0.01773977 -0.009702839 -0.022557 -0.017959239 0.009808651
0.0055836514 0.0017950052 -0.019232705 0.022117091 0.004084867 -0.0039037743 -0.024504784 0.019423002
-0.03015975 -0.046497025 -0.012673616 0.019123217 0.0009701309 -0.018724808 0.020708274 -0.04191778
-0.003438354 -0.051293444 -0.054156493 0.023664033 -0.02551263 -0.0538638 -0.0047171763 0.0021280395
0.00047960228 -0.00490551 -0.005574331 -0.006183609 -0.0063197827 0.012325995 -0.00048783713 -0.036249086
-0.030749908 0.017790677 -0.0018039274 -0.026768815 -0.037898924 0.0033050848 -0.0071174135 0.0032895494
0.023497535 0.029230215 -0.033082135 -0.017396957 -0.03253944 -0.020618027 -0.014635185 0.0025954281

actor_body.layers.1.weight f4 [205, 256]
00000000: a8f6 f0bc ea2a 00bd 6368 8c3b 9080 d0bc
00000010: 1c6e 65bd 60c9 9f3b d822 b83c 20b6 513d
00000020: 9971 81bd 9866 963b ff79 353d 6634 bc3d
00000030: 3c12 01bd 8ea6 60bb a210 6cbd 15a6 71bd
00000040: 39ad ddbc ed14 92bd 37d8 dfbd cf07 01bd
00000050: 2e44 9cbc d85b a53c 12ac 16bd 272c 33be
00000060: 8ddf 863d 3a90 23bc 7cd1 c2ba 1da4 acbc
00000070: 99ec 993d e20e cfbd fbbc 2abe f6a0 cb3c
00000080: 9517 07be b475 a8bd 3176 9a3d 59f2 553d
00000090: e557 2f3d 8b23 093c f5ce 8b3d 31ca e5bd
000000a0: 4042 02bd 95ab 37bd 8688 e2bd 377b a2bd
000000b0: f81b 4f3d 3098 07bd a530 5fbd 482d abbc
000000c0: d0ae 06b9 0f74 ccbd 9f14 94bc 3e8b 18bd
000000d0: 6a10 5d3d c46c 3c3c 8944 78bc a626 b3bd
000000e0: 5c9f 463d 071f debc ba1f 8fbd ceca a83d
000000f0: e4a1 8abd 96e6 a43d 1335 a53d 45c8 d8bd
00000100: 49d2 35bd 13a8 963d 7779 dfbd ac6b e4bc
00000110: 3149 ac3d 9113 96bc 6d89 bc3c 2715 9fbd
00000120: a762 3dbd a6cd c63c 1ce8 df3d 5486 01be
00000130: 95c9 8abd 3ff2 923c 2f3b 81bd 0a9b babc
00000140: 577e a3bd a323 f5bc f102 fbbd f202 db3c
00000150: e760 60bc 6616 98bd 36ea f0bd 025f 913c
00000160: f000 f03b 0fe7 3b3d faca 9f3d 5ee5 cbbc
00000170: a522 eabc 2138 c0bd 4f3b f5bc b01f 113d
00000180: 80ab debb 114e 1c3d a434 bebd 30f9 44bd
00000190: 2164 bebd cf6e 0cbd 1ae0 b43d 7433 d33d
000001a0: 55ab 3abd dee8 813d a516 2abd 12e3 86bd
000001b0: 00dd 18be 8c47 a4bc 051d 773d fdf9 2dbe
000001c0: 3429 65bd 06fb f8bc b903 70bb dd01 6c3d
000001d0: 4982 0ebc 6a92 ec3c 8496 503c ea66 5b3c
000001e0: bc23 50be 27e2 eb3c 0ba6 823a 675b f33c
000001f0: d605 22bd 4bd5 94bd 0bbd 063d b09d fcbd
00000200: 82d6 a03d d22d a63c 3623 58bd c82b 413c
00000210: 7841 a93c ff7a ba3c c44e 2f3d 0c53 6f3b
00000220: 0a7c 35bd 8fc3 8e3d b153 f43d 8f03 9bbd
00000230: 43c8 e3bd d569 863c b5ea b13d d1e4 abbd
00000240: a630 49bc cad1 89bc e5a2 2dbd 804a 2e3b
00000250: 139c 153c 996c 773d f6ba 973c 05d2 c53c
00000260: 12b2 c5bb c8e9 abbd 356d 0b3d e4db 103b
00000270: 295c 723d 1d89 39bd 167e 49bd 712a ebbc
00000280: 619f e2bd 7813 a9bc 3109 efbc e25a b63d
00000290: e405 22be c008 1cbd b036 03be 97ff 69bd
000002a0: ef3a 08bd 49d1 313d 8aba 593d ee56 2abe
000002b0: 2a78 d4bb 5e3f 0bbc aa72 87bd bab4 c0bd
000002c0: 48a4 f43c e29b bc3b 279e 29bd 7e4e e8bd
000002d0: 4b98 073c 2a7b 943d 3a1d 083d 5e02 b23c
000002e0: fbac d8bc 7875 613d 5a8e 8e3c ec57 783d
000002f0: 224f 73bd 148a e5bc fdd6 9cbd 08b4 683b
00000300: 18b0 88bc aa53 69bc 9037 bdb9 d22f a43d
00000310: 41cd 26bd 5a37 d83c eb2c 503c 5b76 3f3d
00000320: 0271 27bd 7014 4838 0df3 683d 180c 3dbe
00000330: 7122 a4bd af75 98bd 5c2f 10bd bcc9 813c
00000340: f111 133e 5df5 f2bd d674 a53d 02b0 d93d
00000350: 6be8 3e3d d208 d5bd 355f de3c d220 07be
00000360: 719c 803d 10bd da3b 8f91 abbb 8795 ef3b
00000370: 79e1 9abc 3fe1 b0bc 6580 913d 2281 01bd
00000380: 5dbc 373d a101 50bd 0867 79bc 2692 0bbe
00000390: 5567 a83d 761d 77bd 4d2e 73bd d59d 0bba
000003a0: 39df f8bd b576 243c 280f 173c a703 0ebd
000003b0: d674 04be 8f89 41be 66ea a3bc 6015 84bc
000003c0: a8f7 ee3d b675 aebd 63bc b6bd 935b ff3d
000003d0: 3099 843c 1913 ffbd d8a7 953d e8fe 9cbd
000003e0: 014b cdba 864f 8b3c c76a 943d cb18 87bd
000003f0: 8d79 943d c14b 463d 8b88 cdbc 631c a0bd
-0.02941449 -0.031290926 0.004284905 -0.025451928 -0.05601321 0.0048763007 0.022477552 0.05119908
-0.06320495 0.004589867 0.044305798 0.09189682 -0.03151153 -0.0034278962 -0.05763305 -0.05899628
-0.027060138 -0.071328975 -0.109299116 -0.031501587 -0.01907548 0.020185396 -0.036785193 -0.17497312
0.06585608 -0.009983117 -0.0014863457 -0.021074349 0.075158305 -0.101102605 -0.16673653 0.024857026
-0.1319259 -0.08225575 0.075420745 0.052233074 0.042808432 0.0083702905 0.06826583 -0.112202056
-0.031801462 -0.044841368 -0.11061196 -0.079336576 0.050563782 -0.03310412 -0.05448975 -0.020895615
-0.00012844359 -0.09983074 -0.01807624 -0.037242167 0.05397073 0.011500541 -0.015153059 -0.08747606
0.04849182 -0.027114404 -0.06988473 0.08241807 -0.067691594 0.08051793 0.08066764 -0.105850734
-0.044389997 0.07356276 -0.109118395 -0.027883373 0.08412398 -0.018319877 0.023014748 -0.07767706
-0.04623666 0.024267983 0.10932943 -0.12648898 -0.0677673 0.017937778 -0.063101165 -0.022779007
-0.07983082 -0.02992422 -0.122564204 0.026734803 -0.013694978 -0.07426147 -0.11763422 0.017745499
0.0073243305 0.04587465 0.078023866 -0.024889644 -0.028580973 -0.09385706 -0.029935507 0.03543061
-0.0067953467 0.038160387 -0.09287384 -0.048089206 -0.09296442 -0.034285363 0.088318065 0.10312548
-0.04557355 0.06343244 -0.0415255 -0.06586279 -0.14928055 -0.020053647 0.06033041 -0.16989894
-0.055947497 -0.030393135 -0.0036623313 0.057618964 -0.008698055 0.02887841 0.012731198 0.013391236
-0.20326132 0.028794361 0.0009967698 0.02970667 -0.039556347 -0.07267245 0.03289513 -0.12334764
0.07853414 0.02028552 -0.052767955 0.011790223 0.0206611 0.022763727 0.042799726 0.0036518006
-0.044307746 0.069708936 0.11930025 -0.07569038 -0.11122181 0.016407887 0.08687345 -0.08393253
-0.012279665 -0.016823668 -0.042391676 0.0026594698 0.009131449 0.0604063 0.018521767 0.024147997
-0.0060331905 -0.083941996 0.034039695 0.0022103721 0.059169922 -0.045296777 -0.04919251 -0.028706761
-0.11065555 -0.020639166 -0.029179187 0.08904053 -0.1582256 -0.038094282 -0.1281383 -0.057128515
-0.03325933 0.04341248 0.053156413 -0.16634724 -0.0064840512 -0.008498995 -0.06613667 -0.09409471
0.029863492 0.0057558874 -0.04141059 -0.11343096 0.008276056 0.07250054 0.033230998 0.021729644
-0.026449671 0.055043668 0.017401863 0.060630724 -0.05940164 -0.028019942 -0.07658193 0.0035507698
-0.01668553 -0.0142411385 -0.00036090286 0.080169335 -0.04072309 0.026393581 0.012706022 0.046743732
-0.040879257 4.770275e-05 0.056872416 -0.18461645 -0.08014382 -0.07444321 -0.035201415 0.015843265
0.14362313 -0.118632056 0.08078925 0.10629274 0.04660837 -0.10402073 0.027145008 -0.13196114
0.06279839 0.00667537 -0.005235858 0.007311526 -0.018906342 -0.02159178 0.071045674 -0.03161729
0.04485737 -0.050782803 -0.0152223185 -0.1362997 0.08222834 -0.06033083 -0.059370328 -0.0005325948
-0.12151951 0.010038068 0.009219922 -0.034671452 -0.12935194 -0.1890013 -0.02000923 -0.016123474
0.116683304 -0.08518545 -0.08922651 0.12468638 0.016186327 -0.124548145 0.07307404 -0.07665807
-0.0015662612 0.017005693 0.07246929 -0.06596526 0.072497465 0.04841209 -0.025089523 -0.07817914

actor_body.layers.1.bias f4 [205]
00000000: 2def 53bd 62e5 533c 3606 99bc a6c7 edbb
00000010: 5853 a53c 76e9 0abd a40b 583c 27dd 5abc
00000020: f838 b63c ec15 d1bc 332d 263d 88f2 a93b
00000030: b698 363d 39db 0e3c 8cd7 f2bc 78e4 d73c
00000040: 984b 1dbc 30c5 2f39 19eb 9a3c 5d2c 2f3c
00000050: fb7e 01bd 52e3 a23b 2326 6e3d 460f 58bc
00000060: 3763 9b3b f0cc 82bc 54b7 073d bcc6 35bd
00000070: d9aa 573d a11a 4a39 af18 bfbc 3765 98bc
00000080: dfc9 0abb ccb1 24bc 5f8e 503d 543e 38bc
00000090: 5e84 963c 0bca 0c3d 5b4c 123d 31f1 0ebc
000000a0: f292 f3bb cb06 bbbc 3b38 cb3c a969 9bbc
000000b0: cc3d 83bc f532 173c 3f23 97ba 20af 9f3c
000000c0: 1e4e 26bc b0a1 bf3c d4ff aa3b 28dc 76bc
000000d0: fb26 19bd b907 fa3c 6730 00bc 47ea 463c
000000e0: b9f9 3e3b 327a a3bc 5056 fb3c 4feb dfbc
000000f0: 747a 2cbc a1fd 823c 28c6 d3bc ceb2 003c
00000100: c1af e93c fcc9 0b3c 9101 8dbc 3e91 40bd
00000110: 097e 283d bd51 273b a813 f53a 1f96 3f3c
00000120: e12d 4e3c b6d9 263c abd1 4f3c 1e8b c6bb
00000130: 040b 75ba 13dd 213d 4704 b7bc 5036 63bc
00000140: 7a96 4bbc 5c3e f53a 2bfa 1cbc a2dd 53bc
00000150: d815 c7bb cc92 d6bc d506 cbbc b4c0 fb37
00000160: e427 2e3d 9ae4 e8bc a8dc 18bc fd13 d9bc
00000170: 2e60 413d 50a5 4dbc 333f 02bd 929c 533c
00000180: 6982 fbbc 0184 af3c 231b 123b 06a2 65bc
00000190: 7ba2 cebc 358e ea3c 7c60 323c feba 58bd
000001a0: f5ce 083c e128 c0bc 3d62 40bb 98ee ab3c
000001b0: 96f9 3f3c 12da 333c 6ab3 41bb 169c bdbc
000001c0: 7c7d 1fbd e186 a63a e6d8 16bd 4ddf 1a3d
000001d0: 7ca4 413c ea1e dfbc 1416 673c 2507 30bd
000001e0: 7f8c 2abc 670d 833c c31b 1a3c b985 00bd
000001f0: 0c84 123d 15bd 0b3c 84f5 3ebd 249d 31bd
00000200: 071a 0d3b 9898 e93c 6ac6 a63a 6b9a 35ba
00000210: e006 f1bb b3b5 b7bc bd11 bebb 2fc8 94bc
00000220: 588d 673d a15e dbbc fbca fcbb 93da d7bc
00000230: c3a1 83bc cdad 3dbc 9d24 61bb d2e1 3ebb
00000240: 4f0b a5bc 313d 063d 9e68 613d 71d7 9abb
00000250: b697 bb3b 40d9 8fbb 94eb 8cb8 e43a a0bc
00000260: 65ba 223d 989c 2a3c e5d1 823c 2ce3 67bb
00000270: 4392 e5bb 558c ffbb b956 c5bb 2ce9 f0bb
00000280: 383d 3c3b 5a27 9d3b b0c0 a83b 00ed 613c
00000290: 7363 543c 0586 90bc 1abb 943a aacf c33b
000002a0: 3146 87bc d4e9 e2b9 53ff a03b ccb0 a93b
000002b0: 691d b2bb c1dd 1a3d 4fdd 8a3c 4a49 2ebb
000002c0: b478 ccbc b57f d4bc e501 a5bc ae66 79ba
000002d0: 5266 41bc a1d5 a9ba 7b45 afbb 3eb8 eb3c
000002e0: aac0 1ebd 9188 cebb 94b2 f6bc d5f8 dcbc
000002f0: 12a9 62bd aa1a a5bc 38cd 09bd edd7 073c
00000300: 891c 533d 0945 18bd 1ad3 b2bc f22d 2dbc
00000310: 7223 253d ecf1 87bd 628d 4e3c 96b2 febc
00000320: f69c a7bb c0fe e6bb 8de9 f63c 6df2 7abb
00000330: 9930 4f3b
-0.051741768 0.012933107 -0.01867972 -0.007256466 0.020181343 -0.033914052 0.013186369 -0.013358391
0.022243962 -0.025523148 0.04057045 0.0051863827 0.04457923 0.008719259 -0.029643796 0.02635406
-0.0096005425 0.00016762759 0.018910931 0.010691729 -0.03161524 0.0049709463 0.05814184 -0.013187235
0.004742052 -0.015966862 0.03313382 -0.04437898 0.052653167 0.00019274141 -0.0233272 -0.01860295
-0.0021177453 -0.010052156 0.050917026 -0.011245329 0.018373664 0.03437237 0.03571735 -0.008724497
-0.0074332887 -0.022830388 0.024807086 -0.018971281 -0.016020678 0.009228458 -0.001153089 0.019492686
-0.0101504605 0.023392528 0.0052184854 -0.015067138 -0.03739069 0.03052126 -0.00782404 0.012140817
0.0029140546 -0.019955728 0.030680805 -0.027333884 -0.010527242 0.01599008 -0.025851324 0.00785513
0.028526189 0.008532044 -0.017212661 -0.047013514 0.04113582 0.0025530898 0.0018697875 0.0116935065
0.012584181 0.010183742 0.012684266 -0.0060590645 -0.000934765 0.039517473 -0.022340907 -0.01386793
-0.012426013 0.0018710601 -0.009581129 -0.012931259 -0.006075602 -0.026193045 -0.024783531 3.0011266e-05
0.04251851 -0.028429318 -0.009329952 -0.026498789 0.047210865 -0.012551621 -0.031798553 0.012915747
-0.030701833 0.021425249 0.0022294007 -0.01401568 -0.025223961 0.028632263 0.0108872615 -0.052912705
0.008350124 -0.023456993 -0.002935543 0.020987794 0.011717221 0.010977285 -0.0029556402 -0.023145717
-0.03893803 0.0012704992 -0.036827944 0.037810612 0.011819001 -0.02723642 0.014104385 -0.042975564
-0.010409473 0.015997602 0.009406033 -0.031377528 0.03577046 0.008528967 -0.04662086 -0.04336275
0.0021530406 0.028515145 0.0012723927 -0.0006927612 -0.007355556 -0.022425508 -0.0058004544 -0.018161861
0.05653128 -0.026778521 -0.007714627 -0.026349341 -0.016068345 -0.011577082 -0.0034354099 -0.0029126299
-0.020146994 0.0327732 0.05503141 -0.0047253896 0.0057248725 -0.004389912 -6.7196e-05 -0.019559331
0.03972854 0.010413311 0.015969226 -0.0035383208 -0.007005961 -0.0077987113 -0.006022301 -0.007352015
0.0028723013 0.004795951 0.0051499233 0.013789415 0.012963164 -0.01764203 0.0011347265 0.005975683
-0.016512962 -0.00043280295 0.0049132495 0.0051785465 -0.005435635 0.037809137 0.016951231 -0.0026593977
-0.0249599 -0.025939802 -0.020142505 -0.00095138967 -0.01180418 -0.0012957343 -0.005348859 0.028774377
-0.038757958 -0.006302901 -0.03011445 -0.026974121 -0.05533702 -0.020154316 -0.033642977 0.008291227
0.051540885 -0.037175212 -0.021829177 -0.010570036 0.040317006 -0.0663794 0.0126069505 -0.031091016
-0.0051151467 -0.0070494115 0.030140663 -0.003829147 0.003161466

critic_body.layers.0.weight f4 [256, 129]
00000000: d922 023e 65db 9d3e 6c23 d83c d3f6 48bd
00000010: 159a be3e d497 aabd 401c d3bd 4c5f 683e
00000020: acfe cb3e d904 1c3c c249 a3bd 9928 77bd
00000030: 58b3 67bc 5362 cf3d 6b19 003e dfd7 113d
00000040: f78f 0ebc 06fa 33bd c103 57bc 3e31 a0bd
00000050: 81bf b03c 8f1c 7bbc 375c d33d 1cdc babc
00000060: 2473 f73d ac86 a0bc 34c1 37be 1e78 45bb
00000070: 65a3 153d 805d d5bb 08ef 2f3c 069b 79bc
00000080: e388 d43c d05d 6a3d adae b8bd 6b02 5cbd
00000090: f8e8 5cbc e91e 2bbd 8b14 5d3d a0ae cd3c
000000a0: c042 103c 7617 d63d dd09 20be a02c e93a
000000b0: e579 1bbd 66c1 ae3c dc84 d43c 62de 0bbd
000000c0: 1da0 3d3c 39d8 c1bd cc48 25ba bb7b 6fbd
000000d0: 00f8 59bc 3c04 67bd 5cb4 e3bd 2351 653d
000000e0: cd64 6b3d b991 eebd 7826 0c3e 00b9 a53d
000000f0: dda3 63bd bcc1 913d 9c11 25bb 4d69 deb9
00000100: 79a1 3b3d d1ed bc3d 44e1 fa3b 5914 83bd
00000110: fea4 21bd e642 f43d cdb0 cd3d ee00 32bc
00000120: 22de 043d f090 193a 4251 ed3d 5feb a43d
00000130: 3e00 473c 3ebe 2f3d 6bd0 70bd 318a d6bd
00000140: 7625 1fbe 8d56 40bd 5232 103e 3aef 10bc
00000150: 2dc0 07be 89b9 093d 1ee7 f5bc 9a0c 0dbd
00000160: 1e78 35be 7134 e8bc 6944 f0bd 29c5 8fbd
00000170: edea 4dbd 6054 ed3d 22cc 78be 7236 5d3d
00000180: 8d33 b33d f6e1 1a3e 9c93 c13b 3281 8c3d
00000190: c6c3 ef3d c998 18bd 8316 4e3d dad1 a2bd
000001a0: 5d54 b7bd eeb7 dcbd fd73 b23d e634 c3bc
000001b0: 2b56 663d 293b d23c 4d9f a43d 4a9a a33c
000001c0: 51df c93d 7e6d f6bd db90 87bc be14 adbd
000001d0: 48db fe3b 4d24 3d3d c285 90bd 43f1 89bd
000001e0: 68ed 323b 4fce 5ebd 2839 27bb 9487 7fbd
000001f0: 41ed 6f3d d216 703d fa1d ab3c a84b e0bc
00000200: 2a8b 933d 4457 a8bc af5b 313e 7f69 4a3d
00000210: bc1a babc 6a0a 933e 92c6 ff3c d466 aabd
00000220: cb86 6c3d 62ce e63e 1055 633d 35fa 643c
00000230: 169a c53d 57ab 72bd 1476 5fbc aae6 643c
00000240: eeea 023b 0d42 94bd 3e95 b4bc 0259 7ebd
00000250: e172 9ebc c0aa b13c a053 393d 6edd bf3d
00000260: c6db 9fbb 7aef 103e f7c3 c8bd 6ff7 84bc
00000270: e9ee 233d df0f 96bc a517 ce3d befd 053d
00000280: 09a7 5b3c 2671 9abd 9a43 8fbc 8109 8fbd
00000290: e327 4f3d cf6a 963d 593a da3d 37c6 1f3e
000002a0: 3c11 6bbd d930 2dbe a96e d13d 88ab 51bd
000002b0: ac20 873d c4dc 643d 3495 87bd 729c 7cbd
000002c0: 57c4 9d3b faf4 7dbc 586f 033b 0cdd 863d
000002d0: 98fc 98bd 434e a9bd 98b1 02bd 5425 563d
000002e0: 8ead 3b3e ef9f 763d 663d 82bd 4f6d 4abd
000002f0: 3fec 883d 355f 113d d6e9 a53c e17c cebb
00000300: 41a8 10bc ed96 88bd 9270 673d 6d95 8fbd
00000310: 0f6e be3d 908e 183e b503 113e ff91 0dbc
00000320: 669a 4d3d 8071 f63c cea5 dd3c 5009 493d
00000330: a069 68bd b1ce 883c 5174 8f3d 374c 813c
00000340: 5f79 75bd 1be9 50bd 6e8d 543b 9ec8 4bbd
00000350: b657 c4bd 583a 00bc 1de2 47bd cdf9 573d
00000360: c1f7 2d3d 6680 0dbd 2af8 f63d 6e63 003b
00000370: 8585 eb3c 6748 953d 081c 85bd e2c9 17be
00000380: e2e6 2a3d de84 48bc 0ef3 2abc a16c b8bc
00000390: 0999 99bd 00a3 06bc e679 2e3d 3428 b73d
000003a0: bc5e 64bd 1488 2dbd 2313 56ba fc38 083d
000003b0: d36b 9dbd c278 863c 1b02 1f3d ac39 ae3d
000003c0: 500a 35bd ad0b 5ebb b698 c23b ec2c 16bc
000003d0: 6961 1abd 62e5 a63d 772b 1fbd f485 0b3d
000003e0: aed8 22bd 5ff7 0d3d fd84 bc3c ea42 69bd
000003f0: bbc5 e73c 5dbc 9f3d 2c21 8a3c 967e 8c3c
0.12708606 0.30831447 0.026384078 -0.049063515 0.3722693 -0.0832974 -0.10308123 0.22692603
0.39842737 0.00952264 -0.079730526 -0.06034145 -0.01414188 0.10126176 0.12509696 0.03560626
-0.008701316 -0.043939613 -0.013123454 -0.07821892 0.021575691 -0.015326633 0.10320323 -0.022810034
0.12082508 -0.019595467 -0.17944795 -0.003013141 0.03653278 -0.00651139 0.010738142 -0.015234714
0.025944179 0.057218373 -0.09017692 -0.053713243 -0.013483278 -0.041777525 0.05397467 0.025107682
0.008804977 0.104536936 -0.15628763 0.0017789789 -0.037958045 0.021332454 0.025942259 -0.034147628
0.0115738185 -0.09465069 -0.0006305098 -0.058467608 -0.013303757 -0.056400523 -0.11118385 0.05598558
0.057469178 -0.11648888 0.1368655 0.080919266 -0.055576194 0.0711703 -0.0025187498 -0.00042421595
0.04580829 0.092250474 0.0076562483 -0.064003654 -0.03946399 0.11926822 0.10043488 -0.0108644795
0.032438405 0.0005858084 0.11587764 0.08052706 0.012146054 0.04290604 -0.058792513 -0.10475577
-0.15541634 -0.04695754 0.14081696 -0.008846099 -0.13256903 0.033624206 -0.030017432 -0.034435846
-0.17721602 -0.028345319 -0.11731798 -0.07020027 -0.05027287 0.11588359 -0.2429662 0.054007
0.08750067 0.1512526 0.005907489 0.068605796 0.11707263 -0.037255082 0.050314438 -0.07950182
-0.08951638 -0.10777269 0.08713529 -0.023828935 0.05623452 0.025662975 0.08038197 0.019971032
0.09857047 -0.12032603 -0.016548565 -0.08451222 0.007777605 0.046177197 -0.07056762 -0.0673547
0.002730215 -0.05439597 -0.0025516246 -0.062385157 0.058575872 0.058615513 0.020888317 -0.027379826
0.07204278 -0.020549424 0.17320131 0.049417015 -0.022717826 0.28718883 0.031222615 -0.08320394
0.057745736 0.45079333 0.055501044 0.01397567 0.0964853 -0.059245434 -0.013638992 0.01397101
0.0019976455 -0.07239161 -0.02204382 -0.062096603 -0.019341888 0.021687865 0.045245767 0.09368406
-0.004878494 0.14153853 -0.09803002 -0.016231267 0.040022764 -0.018318115 0.100631036 0.03271269
0.0134065235 -0.075411126 -0.01748829 -0.069842346 0.05057515 0.07344591 0.1065566 0.15602957
-0.057389483 -0.16913165 0.10226185 -0.051188976 0.065980285 0.0558746 -0.06620255 -0.061672635
0.0048146653 -0.0155003015 0.002005538 0.0658513 -0.074700534 -0.0826688 -0.031907648 0.052281693
0.18327925 0.06021112 -0.06359367 -0.04942065 0.06685685 0.035491187 0.020253103 -0.006301508
-0.008829177 -0.06669412 0.05650384 -0.070109226 0.09298336 0.14898133 0.1416157 -0.008640765
0.050196074 0.030083418 0.0270566 0.049081147 -0.056741357 0.01670012 0.070046075 0.015783412
-0.0599302 -0.051003557 0.0032432931 -0.04975187 -0.09587042 -0.00782641 -0.048799623 0.052728463
0.042472605 -0.03454628 0.12059052 0.0019590515 0.02875019 0.072892 -0.06499487 -0.14823106
0.041724093 -0.012238709 -0.010433925 -0.022512736 -0.07499892 -0.008217573 0.04259672 0.08943215
-0.05575441 -0.042366102 -0.0008166304 0.03325747 -0.076865815 0.016415004 0.038820367 0.08507094
-0.044199288 -0.003388147 0.0059386147 -0.009165984 -0.037690554 0.0814922 -0.03885981 0.034063295
-0.039757423 0.03465974 0.023012633 -0.05694858 0.028292527 0.07799599 0.01686152 0.017150205

critic_body.layers.0.bias f4 [256]
00000000: 4951 c13d 005a ab3d beef a83d 1df8 0fbc
00000010: 734f 083d 3ad8 a63d f321 a53d ac87 543d
00000020: 8069 453d 85a6 b13d b413 6f3d 0ef4 b83d
00000030: 375e 883d e218 c7bc 0db5 86bc d8b2 6a3d
00000040: b694 b5bc b168 643d ebd6 e6bc 9f0f c43b
00000050: 578a e4bc 7ce6 01bd aefd 69bc 94eb 5d3d
00000060: dd6d 563b ff13 82bc e3e3 45bd fb81 823d
00000070: 1883 2a3d 7bb3 943d 296e 5a3d bf85 633b
00000080: 271c d9bb c9b1 c13d 3d68 803d a5ab 963d
00000090: de94 a23d 37a4 a03d aa81 3abc 34e7 803d
000000a0: 0360 2a3d ac89 583b a0e4 c7bb 841e ac3d
000000b0: 028a e93d 514e d4bc 759f 753d 6a6a a33d
000000c0: 81af a03c 27fb 933d 381c 393d a6cc 873d
000000d0: 118a 333d cfaf 153d 0e7b 393d 4893 84bd
000000e0: 123f 4fbd 0def 19bd 972e 6d3c e1a8 493d
000000f0: 9488 3fbd 55bd edbc 9ace 4abc 4f3b ab3d
00000100: 3f7f c0bb 2e5b dd3c 0f12 a23d 3117 493d
00000110: 4582 263d 3fc1 633d 5434 29bd d18f 8fbc
00000120: b1ad 8b3d 7b59 733d 8fb0 453c 4a3d 8cbc
00000130: bdd6 423a f56c babc f1ca 633d 98f9 c53c
00000140: ca3e 9e3d 5b7c 0fbc 7c8f 4dbc 206d 493d
00000150: d002 233d a119 b13c 6699 8a3d 3426 a83d
00000160: 03ef 4fbd 51c3 7e3d 479b 8b3d 088e b03d
00000170: 0a2c 723d 373d 7e3d 2cee 8d3d a914 8b3d
00000180: 9ef1 94bb b8bc 983d a4f3 5c3b d207 a63d
00000190: 5438 773d 79da 953d 803a 543d 78ef ba3d
000001a0: 3c35 883d 43ec aa3d 4196 bb3d 69dc aa3d
000001b0: a151 8e3d 2fa6 b93d 44cf 7dbc f73a a83d
000001c0: 1d1f 993d 0006 f83c 800a ac3d 1ac2 9e3d
000001d0: 4abc 3c3d 5307 b53d 8303 b23d 8c53 0d3d
000001e0: 6d47 c03d bc4e 2f3d 9a89 2fbd e3f3 eb3c
000001f0: 8273 8fbb 4d38 903d f5b5 993d 82bd 813d
00000200: 4d03 a93d 0a10 6fbc 956b 283c ea51 663d
00000210: 9cc5 a93d 4090 fc3c 361c 753d feca 883d
00000220: a672 05bd c070 1a3d 8ef5 593d aee5 863c
00000230: 28d8 8fbd 62aa 713d 62d1 8a3d 833a a33d
00000240: 65a2 233d 6fb8 8e3d cd65 793d 6b3d 7e3d
00000250: 6988 6e3d 1d12 47bc 215d 93bc 1050 ba3d
00000260: 1c5e ae3d 9f61 963d 4e71 93bd 75a8 583d
00000270: aad7 113d e06c 71bc e0d4 7dbd 04ec 823d
00000280: baa7 e23b 3001 62bc 287b aa3d 4405 9d3d
00000290: 1b25 d2bc 7da3 a9bc 4aa9 b43d f618 e43d
000002a0: a74d c93d 8299 79bd b85d 2dbc abd6 743d
000002b0: d4ef ca3d 7041 22bc 6f09 3c3d e2fb 8a3d
000002c0: 485e af3d 4b66 3ebc b6cf 75bb 15f6 d8bb
000002d0: 506e 35bc 9b27 d03d 6393 de3c 84d9 823c
000002e0: 0666 693d 51bf 9c3d 8c9f 4dbd 4742 bf3d
000002f0: 3460 f53b 959d 99bc 2425 fdbc 3176 18bc
00000300: 75bc 943d 2246 7d3c 3632 a23d 5215 8e3c
00000310: 05ef 353d 43e5 a93d 9afa 333d 2ab0 1ebd
00000320: f567 cd3d d387 843d 8e01 6a3d 73f1 813d
00000330: 3b75 4ebc feb7 8c3d 3451 b93d cc5a b2bb
00000340: 2e44 893d 4c2c 25bb 022f cfbb 003f 903d
00000350: 880d 8e3d 1916 4b3d af49 41bd 4520 893d
00000360: 3278 893d 7ba7 333d 8d2c 813d 7749 bc3d
00000370: c7c5 ad3d 9fbf 863d 66b7 733d 2887 1c3b
00000380: a676 b4bd 2264 8fbb ee0c 16bb 4342 06bd
00000390: b095 973d fc00 6cbd d21c 6e3d c500 943d
000003a0: 5af0 313d e015 12bc 4da4 8d3d 6c98 553d
000003b0: 366c b03d cde6 15bc 9d7c f2bb cfaa b13d
000003c0: 6fb9 8abd a769 b03c 130f 233c 0a52 05bc
000003d0: faea 783d 4b2b c03d 911a 8c3d 5e7f dbbc
000003e0: 4c84 b4bd 7aa9 b3bc 010b e13b 8cf8 6b3d
000003f0: 356f dcbd 5a88 99bd 34b9 753d 2711 113d
0.09439332 0.083667755 0.08248852 -0.008787182 0.033278894 0.08146711 0.08063116 0.0518872
0.048196316 0.08674339 0.0583684 0.09030925 0.06658595 -0.024303857 -0.016443754 0.057299465
-0.022165637 0.055763904 -0.028178653 0.0059833075 -0.027897997 -0.031713948 -0.014281673 0.054179743
0.0032719292 -0.015878676 -0.048313033 0.06372448 0.041628927 0.07260796 0.053327713 0.003471717
-0.0066256705 0.09457738 0.06269882 0.07356957 0.079385504 0.078438215 -0.011383453 0.062940985
0.04159547 0.0033041043 -0.0061002523 0.08404258 0.11403276 -0.02591625 0.059966523 0.07979281
0.019614937 0.07225638 0.045192927 0.066308305 0.043832842 0.036544617 0.04528337 -0.06473404
-0.050597258 -0.037581492 0.01447644 0.04923332 -0.04676111 -0.029020945 -0.012378359 0.083609216
-0.005874544 0.027021017 0.07913601 0.049094383 0.04065158 0.055604216 -0.04130967 -0.017524632
0.068202384 0.059411507 0.012066021 -0.017119069 0.0007432511 -0.022757033 0.055613462 0.024166867
0.0772682 -0.008757676 -0.012546416 0.049176335 0.039797604 0.021618666 0.0676754 0.08210412
-0.05076505 0.062197987 0.06816726 0.0862084 0.05912403 0.062070098 0.06930193 0.0679105
-0.0045454046 0.0745787 0.0033714557 0.0810696 0.060356453 0.07317061 0.051813602 0.09127706
0.06650779 0.083458446 0.09159518 0.08342821 0.06949163 0.090649 -0.0154913105 0.08214372
0.074766375 0.030276299 0.0840044 0.07751866 0.046078004 0.088392876 0.08692076 0.034503505
0.093886234 0.042799696 -0.042855836 0.028802818 -0.0043777833 0.070419885 0.07505409 0.06334974
0.08252583 -0.014591226 0.010279556 0.056230463 0.08289644 0.030830503 0.059841357 0.06679343
-0.03258004 0.037705183 0.053212695 0.016466942 -0.070236504 0.05900038 0.06778218 0.079701446
0.039949793 0.06968772 0.0608881 0.06207029 0.05823556 -0.012150315 -0.017988743 0.09097302
0.08514044 0.073428385 -0.071993455 0.05289503 0.035606064 -0.0147354305 -0.06197059 0.06392673
0.006916967 -0.013794228 0.083242714 0.0766702 -0.025652459 -0.02070784 0.08821352 0.111375734
0.09829264 -0.060937412 -0.010581426 0.059775036 0.09909025 -0.009903297 0.045907434 0.06786324
0.085629046 -0.011621068 -0.0037507839 -0.006621132 -0.011073664 0.10163804 0.027169889 0.01597286
0.056982063 0.07653678 -0.050200984 0.09338813 0.007488275 -0.018751899 -0.0309015 -0.009305523
0.07262508 0.0154586155 0.07919733 0.01734415 0.0444174 0.08295681 0.043940164 -0.038742222
0.10029594 0.06471219 0.05713039 0.06344881 -0.012601192 0.06871031 0.090486914 -0.0054429527
0.06702457 -0.0025203405 -0.0063227424 0.07043266 0.06936175 0.04958162 -0.04718941 0.06695608
0.067123786 0.043860894 0.063073255 0.091937 0.08484989 0.065795176 0.059501074 0.002388427
-0.08811693 -0.0043759504 -0.002289589 -0.032778036 0.074015975 -0.057618126 0.058132954 0.07226709
0.043442108 -0.008916348 0.069161035 0.052147314 0.086143896 -0.0091492655 -0.007400109 0.08675157
-0.0677365 0.021534754 0.009952324 -0.008137235 0.060770966 0.093832575 0.06841005 -0.026794132
-0.08814296 -0.021931399 0.006867767 0.05761008 -0.107633986 -0.0749671 0.059991077 0.03541675

critic_body.layers.1.weight f4 [205, 256]
00000000: 2644 063e 5c72 dc3d 127f 033d 73b6 a8bc
00000010: 5c66 5dbd 3b53 fe3d 49c3 943c 0f59 b13c
00000020: ba3e abbb 8257 ea3c d98c 8e3d a259 bc3d
00000030: 9ee7 f13d 19b9 a1be b508 f5bd cb5f 50bd
00000040: 7ab2 ec3c fff6 a0bd cd59 b8bd a1b1 40bd
00000050: 00aa 45bd 4be2 0a3d 19eb dfbd 35ae 033e
00000060: d988 4dbe 00b7 d6bd b10a 60be 9cb2 e33d
00000070: 8904 b83a 6296 32b8 d1fd e4bb 7eeb c23c
00000080: f8d9 80bb 4fc9 473d 1047 673d d091 3bbd
00000090: bbf8 0abd b854 03be 84fb 80be a3da b3bc
000000a0: 6256 563d aad5 0bbe a033 06be bad1 203d
000000b0: fdbc b83d 35b8 27bd a840 423d 0fc2 a63c
000000c0: 7875 ddbd 6669 5e3d b10e 64bd 1971 073d
000000d0: 1d69 293d 66c7 3b3b b5c7 403c 9afd debc
000000e0: 93b2 e13c a51b 03be 1cce 283c 388f 083d
000000f0: f579 2fbe 4d7e 20bd b7bd 46bc 2ef6 18bd
00000100: a057 3fbe 7b3d b43c 0709 573c 0a7a ffbc
00000110: d078 533e 3e42 24bc 6137 44be 9fc2 e6bd
00000120: 3cae a0bd 6c6b f93d 3d90 47be c160 02be
00000130: eb71 97bd b3a9 65bd 7bc2 42bd cc8d e23d
00000140: ff03 4f3d 36bf 3e3d b520 85bd 653a 423c
00000150: ed64 4ebc 58ad 03be 11df 0ebe 427b 89bd
00000160: 5a2c 8bbe e35b b93c 0daf 8dbd c76f 193e
00000170: 9c50 693d 9586 703d 678d c43c 8237 5dbc
00000180: ba49 c7bd eba0 5b3e 9fb4 dcbe 8cd0 3b3c
00000190: 9445 613e bd9a 183c b28f 86bd 09b7 cf3c
000001a0: 2077 dabc 54d4 4ebd bbc1 9a3d f0e2 483d
000001b0: f517 7b3d ebcb 623d 92fc 01bd fb0a 113e
000001c0: af8b 6b3c b63f 3f3d 4698 aa3d b78f d33d
000001d0: ec25 cdbc 00f9 db3d 2d61 ed3d f1ca 8c3b
000001e0: dd52 193d 580a 4f3d bb90 b5bc c6ca 8dbd
000001f0: 6c01 24be fff0 f83d b404 6d3d dc6f dfbc
00000200: f1e3 26bd a059 46be ec09 9e3c 56f8 963d
00000210: c72d 63bc d162 18be d150 4abd cf02 3d3d
00000220: 721f 06bd 8139 dabc aaf9 393d 8518 e1bd
00000230: 49c7 81be 935f dd3c 945a f23d cf38 48bb
00000240: f5cf 8dbd 7889 4abd 6e0c 30be 9ed7 af3c
00000250: ae43 443c a2fd 813d 4b6d b8bd 7201 a43d
00000260: 757f a83d fb6d 213e a3ab 59be dca4 94bc
00000270: 2169 733d 2ce5 ccbd 2f74 e6bc 0d72 893d
00000280: 811b 8abd 4a5f 053d 5832 573a eea1 e83c
00000290: 075b 58bc 71af 063a 1551 ee3c f8c8 923a
000002a0: 6ba0 af3c 4ed1 2bbe 1206 29be 336a 703d
000002b0: addc 8b3d 1d84 36be a4df 353d 72ec be3d
000002c0: b8e6 c9ba 7657 b1bd 53a9 43bc 2411 89bd
000002d0: 3e0b 513d 053c fdbc 65cb 86bd 67ec e7bd
000002e0: a45c 0a3e 6703 523d b6c2 5dbd ffad 1e3d
000002f0: 3e51 fcbd cf77 f4bd ef9b b7bd 544c cabc
00000300: 1542 833d a8eb 813d f686 133d 0d07 99bd
00000310: 71df d9bd 8983 b23d 5f92 6ebd d802 e7be
00000320: 40f9 89bc 01ea 113e 9df2 2a3d 3ee9 653c
00000330: 53d4 e1bd 01a7 933d c54e da3d bc31 373c
00000340: f2f0 a33d 9673 813c 32c6 53bc 4f83 eb3c
00000350: f548 bf3d 29d8 013e a497 c0be d074 e33b
00000360: 4128 1c3d 5851 a23d 3770 b23c 9873 fbbc
00000370: cf72 cc3b 6beb 0ebd 59d9 013e 6c14 e3bd
00000380: f263 8fbe a7c8 40bd b11f 41bd f9ee 38bd
00000390: c4a4 3a3d 2a61 9abe 9d75 013d 1243 8b3d
000003a0: 183a 633d e831 96bd cc8e 3e3d 5ada 583d
000003b0: 80d9 c03b ca50 23bc c725 2cbe efe2 54bd
000003c0: a1ef 7bbe f190 62be 9899 4f3d 62c2 f6bd
000003d0: bbab 333e a219 b53d 6f22 0a3d c374 4fbe
000003e0: 66eb 2bbe d546 b7bd 1aa5 973d 2f05 993c
000003f0: 1a67 c1be 2974 a5be 0e5c e53c 22dd 2bbd
0.13111934 0.10764 0.032103606 -0.020594811 -0.054052696 0.12418219 0.018159525 0.021648912
-0.0052259834 0.02860618 0.06960458 0.091967836 0.118117556 -0.3158653 -0.11964551 -0.050872605
0.028893698 -0.07859611 -0.09001503 -0.0470444 -0.048257828 0.033907216 -0.10933513 0.12859423
-0.20071734 -0.10484123 -0.21879078 0.111180514 0.0014039438 -4.2578562e-05 -0.006988265 0.023793932
-0.003932234 0.048775967 0.056464255 -0.045793355 -0.033928614 -0.12825286 -0.2519189 -0.02195484
0.052328475 -0.13655725 -0.13105631 0.03926251 0.09020422 -0.040947158 0.047424942 0.020356206
-0.10813421 0.054299735 -0.055678073 0.033066843 0.04136001 0.0028652786 0.011766364 -0.027220536
0.027550971 -0.12803514 0.010303047 0.03333971 -0.17136367 -0.03918295 -0.0121301925 -0.03734415
-0.1868577 0.022001972 0.013124711 -0.031186122 0.20651555 -0.010025559 -0.1916175 -0.1126759
-0.078457326 0.12178692 -0.19488616 -0.12732221 -0.07394775 -0.05607004 -0.047548752 0.11062202
0.05054092 0.04656907 -0.06500379 0.011854743 -0.012597305 -0.12859094 -0.1395228 -0.06712963
-0.27182275 0.022626823 -0.06918154 0.14984046 0.05696164 0.058722097 0.023993207 -0.013502004
-0.09730859 0.21448104 -0.43106553 0.011463296 0.21999198 0.009314236 -0.065703765 0.025355833
-0.026668131 -0.05049546 0.075564824 0.04904455 0.061302144 0.055370253 -0.03173501 0.14164345
0.014376565 0.04669162 0.08329825 0.10330146 -0.025042497 0.10740852 0.115908004 0.0042966534
0.03743254 0.050546974 -0.02216374 -0.069234416 -0.16016167 0.12155341 0.057865813 -0.027275018
-0.040744726 -0.19370127 0.01929184 0.07371585 -0.013865895 -0.14881445 -0.04939348 0.046145257
-0.032744832 -0.026638748 0.045404114 -0.10991005 -0.25347355 0.027023112 0.11833683 -0.0030551439
-0.0692443 -0.049447507 -0.17192242 0.021465119 0.011979027 0.06347205 -0.09005221 0.08008088
0.082274355 0.1576461 -0.2125688 -0.018145017 0.05942643 -0.100046486 -0.028131573 0.067112066
-0.06743527 0.032561578 0.0008209101 0.028397527 -0.013205296 0.0005137837 0.029091397 0.0011198809
0.021438798 -0.16779062 -0.16506222 0.05869503 0.068292 -0.17823835 0.044402733 0.09322442
-0.0015403843 -0.0865926 -0.0119422255 -0.066927224 0.051036112 -0.030912409 -0.06581763 -0.11324387
0.13511902 0.051272776 -0.05414077 0.038740154 -0.12320183 -0.11936914 -0.08965289 -0.0246946
0.064090885 0.06343776 0.03601738 -0.07472048 -0.10638321 0.087164946 -0.05824506 -0.45119357
-0.016842484 0.14249422 0.04173528 0.01403266 -0.11026826 0.07209588 0.10659555 0.011181291
0.08004941 0.015802186 -0.012925671 0.028749136 0.09340087 0.12680115 -0.37615693 0.0069414154
0.038124327 0.07925671 0.021782024 -0.030694768 0.006239272 -0.03489248 0.12680568 -0.110878795
-0.2800594 -0.047066357 -0.047149364 -0.045149777 0.04556729 -0.30152255 0.031606305 0.06799902
0.055475324 -0.073337376 0.0465229 0.05294261 0.005885303 -0.009967992 -0.16811286 -0.051974233
-0.2460313 -0.22125603 0.050683588 -0.12048794 0.17545979 0.0884278 0.033724245 -0.20259385
-0.16789016 -0.08949057 0.074045375 0.01867923 -0.37773973 -0.32315186 0.027997997 -0.041958936

critic_body.layers.1.bias f4 [205]
00000000: 5b6d 983d 3e1f 553d 8753 c73c 4198 b53d
00000010: fcb5 ca3d e8f4 873d f7f5 863d 3b98 ac3d
00000020: fa54 953d 00b7 703d 923b a13d cf5e 8e3d
00000030: 65e7 973d 844f a03d 22fb 553d 1ed5 8e3d
00000040: d869 a23d fb48 a13d b0d3 963d f893 c63d
00000050: df82 693d 0e1a 193d 45be af3d 8f4a 883d
00000060: 21c5 b93d 7c9f 8f3d 6024 4b3d 80a9 943d
00000070: cb82 963d be29 413d 15af 943d 76ec 923d
00000080: 71b9 703d 1916 d33d b23a 093d c143 953d
00000090: 58cd 893d e0f0 b13d da21 9f3d 9ddc ba3d
000000a0: eeca 8d3d 0bae 7e3d e4e2 783d ed3e 6b3d
000000b0: 9f5f af3d 237b 613d 6231 573d d456 7bbc
000000c0: c92d 983d 4b94 933d a7a9 a63d 1e17 9d3d
000000d0: 17b6 bf3d 6095 623d 0661 9b3d efe8 b63d
000000e0: 9639 923d 0c6b 8b3d 7401 a43d 6669 9b3d
000000f0: 3c43 913d c57a 783d 11c2 8d3d a0a8 8c3d
00000100: a923 8f3d 7ee2 953d 4b55 893d 95d4 8f3d
00000110: e1d9 a53d ec67 ac3d 0ab6 8f3d 318e 923d
00000120: 3bdb 983d 4ab8 cc3d db2d cd3d b650 843d
00000130: 6af3 953d 571f 9d3d 3173 923d 4b09 843d
00000140: 1165 7a3d 4246 923d fce7 9c3d 64ae ab3d
00000150: e84a 843d f6b6 723d bb42 c53d 5851 823d
00000160: c4ce 863d d01b 403d 188e 863d 6cb7 9a3d
00000170: 8cb7 a03d 3a17 903d 0590 7a3d 1596 903d
00000180: 954b 853d 1244 973d 755b a13d 9d48 4a3d
00000190: 0b10 943d be01 953d 8935 a23d 23a2 903d
000001a0: b1e6 943d 859f 983d a2ac 8f3d d47c 833d
000001b0: f193 8d3d 19b0 5d3d ee0c 6c3d b836 ae3d
000001c0: 4b7e 8d3d 63ba 733d 07a7 923d 53f2 553d
000001d0: 2808 623d 1b7c 843c 9563 913d e678 833d
000001e0: 73f8 953d 9794 943d a8ac 923d 8c17 ba3d
000001f0: 8ad9 cb3d c9e6 a33d bcb4 b43d 9ce1 7b3d
00000200: 3aa2 8d3d b622 893d 15c6 af3d e61b 1bbc
00000210: 6d24 713d 4224 d63d e0f6 8f3d 6895 973d
00000220: e2bb ad3d edad 983d 9779 8a3d 3913 543d
00000230: c264 603d 0ad9 823d c507 993d 3b7e 903d
00000240: 6da2 b13d c73f bf3d 25ce b23d ed6e 933d
00000250: de6b a13d 22bd 9f3d 8bf5 ca3d 58d7 8b3d
00000260: 6abb 893d f7de 9b3d 61e8 913d af27 8d3d
00000270: 80b7 903d 13e1 8e3d be80 943d 21e4 c43d
00000280: f351 903d 7142 bc3d 2bc5 833d f289 9a3d
00000290: 53b3 b93d 9602 8e3d 9068 b23d 95b0 8c3d
000002a0: ba4c b63d 81bd 953d 2316 853d 6e5a ab3d
000002b0: ac62 983d c275 8f3a 2cae 9d3d f515 a53d
000002c0: 130b b73d 75b3 a03d 2e0e 533d ff42 893d
000002d0: 0987 a63d 3ffb 993d 9bd5 9d3d 6fb6 9a3d
000002e0: 49be 8c3d 427d e23d 3a0e 943d 4691 8c3d
000002f0: 31dc 833d 0972 823d af66 893d 536a a03d
00000300: 12e0 813d 6115 ad3d a1e6 8b3d e34d 903d
00000310: 278e 7b3d 4ee0 5e3d 920f b03d 3854 543d
00000320: 5842 8a3d 9ab3 9d3d 43c6 c43d eb8e 683d
00000330: 7c40 913d
0.07442733 0.052031748 0.024331821 0.08866931 0.09897992 0.06638509 0.06589883 0.08427473
0.072915986 0.058768272 0.0787269 0.06951677 0.07417182 0.078276664 0.052241452 0.06974243
0.07930344 0.07875248 0.07364595 0.096961915 0.057009574 0.037378363 0.08581213 0.06654846
0.090708025 0.07012841 0.049595237 0.07258892 0.073491655 0.04715895 0.07259957 0.071740076
0.0587706 0.10306949 0.03350324 0.07288314 0.06728619 0.086885214 0.077701285 0.0912411
0.069234714 0.0621777 0.060763255 0.057433058 0.0856316 0.055049073 0.05253733 -0.015340526
0.07430608 0.07206019 0.08137827 0.07670425 0.09360903 0.055318236 0.07586865 0.08931147
0.0713989 0.06807527 0.0800809 0.075884625 0.07092902 0.060663957 0.06921781 0.068681
0.069892235 0.073185906 0.067057215 0.07022969 0.08098198 0.08418259 0.07017143 0.07156027
0.0746369 0.09996088 0.10018512 0.06460707 0.07321818 0.07671993 0.07150877 0.06447085
0.06113154 0.07142307 0.07661435 0.08382872 0.064596 0.059256516 0.096318685 0.06363171
0.06582406 0.046901524 0.06570071 0.07554516 0.07847509 0.0703568 0.061172504 0.07059876
0.06508557 0.0738603 0.07878772 0.049385656 0.072296225 0.07275723 0.07920367 0.07062175
0.072705634 0.07452301 0.07015349 0.064202935 0.06912983 0.054123018 0.05762952 0.085065305
0.06908854 0.059503924 0.07160764 0.05223305 0.05518356 0.01617246 0.07099072 0.06419544
0.073227786 0.07254904 0.07161838 0.090865225 0.09953602 0.08003003 0.08823535 0.061494455
0.06915708 0.06696074 0.08582703 -0.009467101 0.05887263 0.104561344 0.070295095 0.07401544
0.084831014 0.07455049 0.06761473 0.051776145 0.05478359 0.06389053 0.07472185 0.070553266
0.086735584 0.093383364 0.08730725 0.07198892 0.07881902 0.07799746 0.09910115 0.06828183
0.067251995 0.076108865 0.07124401 0.06892335 0.0706625 0.06976523 0.07251118 0.09613825
0.070468806 0.0919236 0.06434091 0.07545842 0.090674065 0.06934087 0.0871135 0.06869618
0.08901353 0.073115356 0.06498363 0.083668575 0.07440695 0.0010945129 0.07699236 0.080608286
0.08937659 0.07846729 0.051527195 0.067022316 0.08131225 0.075186245 0.07706758 0.07554328
0.068722315 0.11059047 0.07229276 0.06863646 0.064384826 0.06369407 0.067090385 0.0783278
0.06341566 0.08451343 0.06831098 0.07046106 0.061414864 0.054413132 0.0859672 0.05183813
0.06750935 0.07700272 0.09608128 0.056776922 0.070923775
